…
[0] I0619 19:48:51.027695 32319 db_lmdb.cpp:72] Opened lmdb examples/imagenet/ilsvrc12_train_lmdb
[1] I0619 19:48:50.872256 32404 db_lmdb.cpp:72] Opened lmdb examples/imagenet/ilsvrc12_train_lmdb
[3] I0619 19:48:51.071902 23187 data_layer.cpp:80] output data size: 96,3,224,224
[2] I0619 19:48:51.083626 32946 data_layer.cpp:80] output data size: 96,3,224,224
[0] I0619 19:48:51.081423 32180 data_layer.cpp:80] output data size: 96,3,224,224
[1] I0619 19:48:50.926678 32264 data_layer.cpp:80] output data size: 96,3,224,224
[3] I0619 19:48:51.412379 23187 net.cpp:267] Setting up data
[3] I0619 19:48:51.412526 23187 net.cpp:274] Top shape: 96 3 224 224 (14450688)
[3] I0619 19:48:51.412572 23187 net.cpp:274] Top shape: 96 (96)
[3] I0619 19:48:51.412597 23187 net.cpp:282] Memory required for data: 57803136
[3] I0619 19:48:51.412644 23187 layer_factory.hpp:114] Creating layer label_data_1_split
[3] I0619 19:48:51.412870 23187 net.cpp:183] Creating Layer label_data_1_split
[3] I0619 19:48:51.412917 23187 net.cpp:864] label_data_1_split <- label
[3] I0619 19:48:51.412987 23187 net.cpp:838] label_data_1_split -> label_data_1_split_0
[3] I0619 19:48:51.413043 23187 net.cpp:838] label_data_1_split -> label_data_1_split_1
[3] I0619 19:48:51.413086 23187 net.cpp:838] label_data_1_split -> label_data_1_split_2
[1] I0619 19:48:51.263731 32264 net.cpp:267] Setting up data
[1] I0619 19:48:51.263876 32264 net.cpp:274] Top shape: 96 3 224 224 (14450688)
[1] I0619 19:48:51.263919 32264 net.cpp:274] Top shape: 96 (96)
[1] I0619 19:48:51.263945 32264 net.cpp:282] Memory required for data: 57803136
[1] I0619 19:48:51.263996 32264 layer_factory.hpp:114] Creating layer label_data_1_split
[1] I0619 19:48:51.264205 32264 net.cpp:183] Creating Layer label_data_1_split
[1] I0619 19:48:51.264251 32264 net.cpp:864] label_data_1_split <- label
[1] I0619 19:48:51.264315 32264 net.cpp:838] label_data_1_split -> label_data_1_split_0
[1] I0619 19:48:51.264371 32264 net.cpp:838] label_data_1_split -> label_data_1_split_1
[1] I0619 19:48:51.264412 32264 net.cpp:838] label_data_1_split -> label_data_1_split_2
[0] I0619 19:48:51.421712 32180 net.cpp:267] Setting up data
[2] I0619 19:48:51.424469 32946 net.cpp:267] Setting up data
[0] I0619 19:48:51.421855 32180 net.cpp:274] Top shape: 96 3 224 224 (14450688)
[0] I0619 19:48:51.421922 32180 net.cpp:274] Top shape: 96 (96)
[2] I0619 19:48:51.424608 32946 net.cpp:274] Top shape: 96 3 224 224 (14450688)
[0] I0619 19:48:51.421950 32180 net.cpp:282] Memory required for data: 57803136
[0] I0619 19:48:51.421984 32180 layer_factory.hpp:114] Creating layer label_data_1_split
[2] I0619 19:48:51.424654 32946 net.cpp:274] Top shape: 96 (96)
[0] I0619 19:48:51.422173 32180 net.cpp:183] Creating Layer label_data_1_split
[2] I0619 19:48:51.424715 32946 net.cpp:282] Memory required for data: 57803136
[0] I0619 19:48:51.422214 32180 net.cpp:864] label_data_1_split <- label
[2] I0619 19:48:51.424763 32946 layer_factory.hpp:114] Creating layer label_data_1_split
[0] I0619 19:48:51.422281 32180 net.cpp:838] label_data_1_split -> label_data_1_split_0
[2] I0619 19:48:51.424952 32946 net.cpp:183] Creating Layer label_data_1_split
[0] I0619 19:48:51.422332 32180 net.cpp:838] label_data_1_split -> label_data_1_split_1
[2] I0619 19:48:51.424993 32946 net.cpp:864] label_data_1_split <- label
[0] I0619 19:48:51.422371 32180 net.cpp:838] label_data_1_split -> label_data_1_split_2
[2] I0619 19:48:51.425058 32946 net.cpp:838] label_data_1_split -> label_data_1_split_0
[2] I0619 19:48:51.425109 32946 net.cpp:838] label_data_1_split -> label_data_1_split_1
[2] I0619 19:48:51.425153 32946 net.cpp:838] label_data_1_split -> label_data_1_split_2
[3] I0619 19:48:51.449451 23187 net.cpp:267] Setting up label_data_1_split
[3] I0619 19:48:51.449558 23187 net.cpp:274] Top shape: 96 (96)
[3] I0619 19:48:51.449592 23187 net.cpp:274] Top shape: 96 (96)
[3] I0619 19:48:51.449623 23187 net.cpp:274] Top shape: 96 (96)
[3] I0619 19:48:51.449645 23187 net.cpp:282] Memory required for data: 57804288
[3] I0619 19:48:51.449687 23187 layer_factory.hpp:114] Creating layer conv1/7x7_s2
[3] I0619 19:48:51.449882 23187 net.cpp:183] Creating Layer conv1/7x7_s2
[3] I0619 19:48:51.449925 23187 net.cpp:864] conv1/7x7_s2 <- data
[3] I0619 19:48:51.449975 23187 net.cpp:838] conv1/7x7_s2 -> conv1/7x7_s2
[1] I0619 19:48:51.300565 32264 net.cpp:267] Setting up label_data_1_split
[1] I0619 19:48:51.300667 32264 net.cpp:274] Top shape: 96 (96)
[1] I0619 19:48:51.300700 32264 net.cpp:274] Top shape: 96 (96)
[1] I0619 19:48:51.300732 32264 net.cpp:274] Top shape: 96 (96)
[1] I0619 19:48:51.300755 32264 net.cpp:282] Memory required for data: 57804288
[1] I0619 19:48:51.300794 32264 layer_factory.hpp:114] Creating layer conv1/7x7_s2
[1] I0619 19:48:51.300950 32264 net.cpp:183] Creating Layer conv1/7x7_s2
[1] I0619 19:48:51.300992 32264 net.cpp:864] conv1/7x7_s2 <- data
[1] I0619 19:48:51.301067 32264 net.cpp:838] conv1/7x7_s2 -> conv1/7x7_s2
[0] I0619 19:48:51.458387 32180 net.cpp:267] Setting up label_data_1_split
[2] I0619 19:48:51.461068 32946 net.cpp:267] Setting up label_data_1_split
[0] I0619 19:48:51.458494 32180 net.cpp:274] Top shape: 96 (96)
[0] I0619 19:48:51.458528 32180 net.cpp:274] Top shape: 96 (96)
[0] I0619 19:48:51.458559 32180 net.cpp:274] Top shape: 96 (96)
[2] I0619 19:48:51.461177 32946 net.cpp:274] Top shape: 96 (96)
[2] I0619 19:48:51.461210 32946 net.cpp:274] Top shape: 96 (96)
[0] I0619 19:48:51.458582 32180 net.cpp:282] Memory required for data: 57804288
[2] I0619 19:48:51.461238 32946 net.cpp:274] Top shape: 96 (96)
[0] I0619 19:48:51.458622 32180 layer_factory.hpp:114] Creating layer conv1/7x7_s2
[2] I0619 19:48:51.461266 32946 net.cpp:282] Memory required for data: 57804288
[0] I0619 19:48:51.458781 32180 net.cpp:183] Creating Layer conv1/7x7_s2
[2] I0619 19:48:51.461300 32946 layer_factory.hpp:114] Creating layer conv1/7x7_s2
[0] I0619 19:48:51.458822 32180 net.cpp:864] conv1/7x7_s2 <- data
[2] I0619 19:48:51.461473 32946 net.cpp:183] Creating Layer conv1/7x7_s2
[0] I0619 19:48:51.458869 32180 net.cpp:838] conv1/7x7_s2 -> conv1/7x7_s2
[2] I0619 19:48:51.461508 32946 net.cpp:864] conv1/7x7_s2 <- data
[2] I0619 19:48:51.461560 32946 net.cpp:838] conv1/7x7_s2 -> conv1/7x7_s2
[2] I0619 19:48:51.636140 32946 net.cpp:267] Setting up conv1/7x7_s2
[0] I0619 19:48:51.633693 32180 net.cpp:267] Setting up conv1/7x7_s2
[3] I0619 19:48:51.633651 23187 net.cpp:267] Setting up conv1/7x7_s2
[1] I0619 19:48:51.478060 32264 net.cpp:267] Setting up conv1/7x7_s2
[2] I0619 19:48:51.636245 32946 net.cpp:274] Top shape: 96 64 112 112 (77070336)
[2] I0619 19:48:51.636268 32946 net.cpp:282] Memory required for data: 366085632
[0] I0619 19:48:51.633792 32180 net.cpp:274] Top shape: 96 64 112 112 (77070336)
[0] I0619 19:48:51.633817 32180 net.cpp:282] Memory required for data: 366085632
[3] I0619 19:48:51.633772 23187 net.cpp:274] Top shape: 96 64 112 112 (77070336)
[3] I0619 19:48:51.633798 23187 net.cpp:282] Memory required for data: 366085632
[1] I0619 19:48:51.478157 32264 net.cpp:274] Top shape: 96 64 112 112 (77070336)
[1] I0619 19:48:51.478181 32264 net.cpp:282] Memory required for data: 366085632
[2] I0619 19:48:51.636376 32946 layer_factory.hpp:114] Creating layer conv1/relu_7x7
[0] I0619 19:48:51.633952 32180 layer_factory.hpp:114] Creating layer conv1/relu_7x7
[3] I0619 19:48:51.633915 23187 layer_factory.hpp:114] Creating layer conv1/relu_7x7
[1] I0619 19:48:51.478292 32264 layer_factory.hpp:114] Creating layer conv1/relu_7x7
…
[3] I0619 19:48:51.634068 23187 net.cpp:864] conv1/relu_7x7 <- conv1/7x7_s2
[3] I0619 19:48:51.634114 23187 net.cpp:825] conv1/relu_7x7 -> conv1/7x7_s2 (in-place)
[1] I0619 19:48:51.478446 32264 net.cpp:864] conv1/relu_7x7 <- conv1/7x7_s2
[2] I0619 19:48:51.636580 32946 net.cpp:825] conv1/relu_7x7 -> conv1/7x7_s2 (in-place)
[0] I0619 19:48:51.634296 32180 net.cpp:267] Setting up conv1/relu_7x7
[3] I0619 19:48:51.634259 23187 net.cpp:267] Setting up conv1/relu_7x7
[1] I0619 19:48:51.478480 32264 net.cpp:825] conv1/relu_7x7 -> conv1/7x7_s2 (in-place)
[2] I0619 19:48:51.636778 32946 net.cpp:267] Setting up conv1/relu_7x7
[0] I0619 19:48:51.634335 32180 net.cpp:274] Top shape: 96 64 112 112 (77070336)
[0] I0619 19:48:51.634356 32180 net.cpp:282] Memory required for data: 674366976
[3] I0619 19:48:51.634306 23187 net.cpp:274] Top shape: 96 64 112 112 (77070336)
[1] I0619 19:48:51.478615 32264 net.cpp:267] Setting up conv1/relu_7x7
[2] I0619 19:48:51.636833 32946 net.cpp:274] Top shape: 96 64 112 112 (77070336)
[0] I0619 19:48:51.634380 32180 layer_factory.hpp:114] Creating layer pool1/3x3_s2
[3] I0619 19:48:51.634330 23187 net.cpp:282] Memory required for data: 674366976
[1] I0619 19:48:51.478654 32264 net.cpp:274] Top shape: 96 64 112 112 (77070336)
[1] I0619 19:48:51.478677 32264 net.cpp:282] Memory required for data: 674366976
[2] I0619 19:48:51.636863 32946 net.cpp:282] Memory required for data: 674366976
[0] I0619 19:48:51.634455 32180 net.cpp:183] Creating Layer pool1/3x3_s2
[3] I0619 19:48:51.634353 23187 layer_factory.hpp:114] Creating layer pool1/3x3_s2
[1] I0619 19:48:51.478700 32264 layer_factory.hpp:114] Creating layer pool1/3x3_s2
[2] I0619 19:48:51.636889 32946 layer_factory.hpp:114] Creating layer pool1/3x3_s2
[0] I0619 19:48:51.634485 32180 net.cpp:864] pool1/3x3_s2 <- conv1/7x7_s2
[3] I0619 19:48:51.634433 23187 net.cpp:183] Creating Layer pool1/3x3_s2
[3] I0619 19:48:51.634457 23187 net.cpp:864] pool1/3x3_s2 <- conv1/7x7_s2
[2] I0619 19:48:51.636967 32946 net.cpp:183] Creating Layer pool1/3x3_s2
[0] I0619 19:48:51.634526 32180 net.cpp:838] pool1/3x3_s2 -> pool1/3x3_s2
[3] I0619 19:48:51.634496 23187 net.cpp:838] pool1/3x3_s2 -> pool1/3x3_s2
[2] I0619 19:48:51.636999 32946 net.cpp:864] pool1/3x3_s2 <- conv1/7x7_s2
[0] I0619 19:48:51.634644 32180 net.cpp:267] Setting up pool1/3x3_s2
[3] I0619 19:48:51.634627 23187 net.cpp:267] Setting up pool1/3x3_s2
[2] I0619 19:48:51.637042 32946 net.cpp:838] pool1/3x3_s2 -> pool1/3x3_s2
[0] I0619 19:48:51.634683 32180 net.cpp:274] Top shape: 96 64 56 56 (19267584)
[0] I0619 19:48:51.634706 32180 net.cpp:282] Memory required for data: 751437312
[3] I0619 19:48:51.634667 23187 net.cpp:274] Top shape: 96 64 56 56 (19267584)
[3] I0619 19:48:51.634690 23187 net.cpp:282] Memory required for data: 751437312
[3] I0619 19:48:51.634748 23187 layer_factory.hpp:114] Creating layer pool1/norm1
[2] I0619 19:48:51.637171 32946 net.cpp:267] Setting up pool1/3x3_s2
[0] I0619 19:48:51.634728 32180 layer_factory.hpp:114] Creating layer pool1/norm1
[3] I0619 19:48:51.634852 23187 net.cpp:183] Creating Layer pool1/norm1
[1] I0619 19:48:51.478777 32264 net.cpp:183] Creating Layer pool1/3x3_s2
[2] I0619 19:48:51.637209 32946 net.cpp:274] Top shape: 96 64 56 56 (19267584)
[3] I0619 19:48:51.634887 23187 net.cpp:864] pool1/norm1 <- pool1/3x3_s2
[3] I0619 19:48:51.634922 23187 net.cpp:838] pool1/norm1 -> pool1/norm1
[1] I0619 19:48:51.478806 32264 net.cpp:864] pool1/3x3_s2 <- conv1/7x7_s2
[2] I0619 19:48:51.637243 32946 net.cpp:282] Memory required for data: 751437312
[3] I0619 19:48:51.635030 23187 net.cpp:267] Setting up pool1/norm1
[1] I0619 19:48:51.478838 32264 net.cpp:838] pool1/3x3_s2 -> pool1/3x3_s2
[2] I0619 19:48:51.637275 32946 layer_factory.hpp:114] Creating layer pool1/norm1
[3] I0619 19:48:51.635071 23187 net.cpp:274] Top shape: 96 64 56 56 (19267584)
[3] I0619 19:48:51.635092 23187 net.cpp:282] Memory required for data: 828507648
[1] I0619 19:48:51.478953 32264 net.cpp:267] Setting up pool1/3x3_s2
[2] I0619 19:48:51.637362 32946 net.cpp:183] Creating Layer pool1/norm1
[0] I0619 19:48:51.634811 32180 net.cpp:183] Creating Layer pool1/norm1
[3] I0619 19:48:51.635116 23187 layer_factory.hpp:114] Creating layer conv2/3x3_reduce
[1] I0619 19:48:51.478999 32264 net.cpp:274] Top shape: 96 64 56 56 (19267584)
[2] I0619 19:48:51.637392 32946 net.cpp:864] pool1/norm1 <- pool1/3x3_s2
[0] I0619 19:48:51.634840 32180 net.cpp:864] pool1/norm1 <- pool1/3x3_s2
[3] I0619 19:48:51.635198 23187 net.cpp:183] Creating Layer conv2/3x3_reduce
[1] I0619 19:48:51.479027 32264 net.cpp:282] Memory required for data: 751437312
[2] I0619 19:48:51.637423 32946 net.cpp:838] pool1/norm1 -> pool1/norm1
[0] I0619 19:48:51.634872 32180 net.cpp:838] pool1/norm1 -> pool1/norm1
[3] I0619 19:48:51.635228 23187 net.cpp:864] conv2/3x3_reduce <- pool1/norm1
[3] I0619 19:48:51.635264 23187 net.cpp:838] conv2/3x3_reduce -> conv2/3x3_reduce
[1] I0619 19:48:51.479073 32264 layer_factory.hpp:114] Creating layer pool1/norm1
[2] I0619 19:48:51.637526 32946 net.cpp:267] Setting up pool1/norm1
[0] I0619 19:48:51.635000 32180 net.cpp:267] Setting up pool1/norm1
[1] I0619 19:48:51.479153 32264 net.cpp:183] Creating Layer pool1/norm1
[2] I0619 19:48:51.637564 32946 net.cpp:274] Top shape: 96 64 56 56 (19267584)
[0] I0619 19:48:51.635041 32180 net.cpp:274] Top shape: 96 64 56 56 (19267584)
[1] I0619 19:48:51.479182 32264 net.cpp:864] pool1/norm1 <- pool1/3x3_s2
[2] I0619 19:48:51.637594 32946 net.cpp:282] Memory required for data: 828507648
[0] I0619 19:48:51.635068 32180 net.cpp:282] Memory required for data: 828507648
[1] I0619 19:48:51.479213 32264 net.cpp:838] pool1/norm1 -> pool1/norm1
[2] I0619 19:48:51.637627 32946 layer_factory.hpp:114] Creating layer conv2/3x3_reduce
[0] I0619 19:48:51.635093 32180 layer_factory.hpp:114] Creating layer conv2/3x3_reduce
[1] I0619 19:48:51.479310 32264 net.cpp:267] Setting up pool1/norm1
[2] I0619 19:48:51.637725 32946 net.cpp:183] Creating Layer conv2/3x3_reduce
[0] I0619 19:48:51.635169 32180 net.cpp:183] Creating Layer conv2/3x3_reduce
[1] I0619 19:48:51.479357 32264 net.cpp:274] Top shape: 96 64 56 56 (19267584)
[2] I0619 19:48:51.637758 32946 net.cpp:864] conv2/3x3_reduce <- pool1/norm1
[0] I0619 19:48:51.635198 32180 net.cpp:864] conv2/3x3_reduce <- pool1/norm1
[1] I0619 19:48:51.479383 32264 net.cpp:282] Memory required for data: 828507648
[2] I0619 19:48:51.637792 32946 net.cpp:838] conv2/3x3_reduce -> conv2/3x3_reduce
[0] I0619 19:48:51.635239 32180 net.cpp:838] conv2/3x3_reduce -> conv2/3x3_reduce
[1] I0619 19:48:51.479414 32264 layer_factory.hpp:114] Creating layer conv2/3x3_reduce
[1] I0619 19:48:51.479495 32264 net.cpp:183] Creating Layer conv2/3x3_reduce
[1] I0619 19:48:51.479523 32264 net.cpp:864] conv2/3x3_reduce <- pool1/norm1
[1] I0619 19:48:51.479558 32264 net.cpp:838] conv2/3x3_reduce -> conv2/3x3_reduce
[0] I0619 19:48:51.649180 32180 net.cpp:267] Setting up conv2/3x3_reduce
[0] I0619 19:48:51.649277 32180 net.cpp:274] Top shape: 96 64 56 56 (19267584)
[0] I0619 19:48:51.649300 32180 net.cpp:282] Memory required for data: 905577984
[2] I0619 19:48:51.652139 32946 net.cpp:267] Setting up conv2/3x3_reduce
[0] I0619 19:48:51.649458 32180 layer_factory.hpp:114] Creating layer conv2/relu_3x3_reduce
[3] I0619 19:48:51.649497 23187 net.cpp:267] Setting up conv2/3x3_reduce
[1] I0619 19:48:51.493947 32264 net.cpp:267] Setting up conv2/3x3_reduce
[2] I0619 19:48:51.652240 32946 net.cpp:274] Top shape: 96 64 56 56 (19267584)
[0] I0619 19:48:51.649530 32180 net.cpp:183] Creating Layer conv2/relu_3x3_reduce
[3] I0619 19:48:51.649601 23187 net.cpp:274] Top shape: 96 64 56 56 (19267584)
[1] I0619 19:48:51.494078 32264 net.cpp:274] Top shape: 96 64 56 56 (19267584)
[2] I0619 19:48:51.652263 32946 net.cpp:282] Memory required for data: 905577984
[0] I0619 19:48:51.649562 32180 net.cpp:864] conv2/relu_3x3_reduce <- conv2/3x3_reduce
[0] I0619 19:48:51.649597 32180 net.cpp:825] conv2/relu_3x3_reduce -> conv2/3x3_reduce (in-place)
[3] I0619 19:48:51.649626 23187 net.cpp:282] Memory required for data: 905577984
[1] I0619 19:48:51.494103 32264 net.cpp:282] Memory required for data: 905577984
[2] I0619 19:48:51.652415 32946 layer_factory.hpp:114] Creating layer conv2/relu_3x3_reduce
[0] I0619 19:48:51.649678 32180 net.cpp:267] Setting up conv2/relu_3x3_reduce
[3] I0619 19:48:51.649807 23187 layer_factory.hpp:114] Creating layer conv2/relu_3x3_reduce
[1] I0619 19:48:51.494257 32264 layer_factory.hpp:114] Creating layer conv2/relu_3x3_reduce
[2] I0619 19:48:51.652480 32946 net.cpp:183] Creating Layer conv2/relu_3x3_reduce
[0] I0619 19:48:51.649715 32180 net.cpp:274] Top shape: 96 64 56 56 (19267584)
[0] I0619 19:48:51.649737 32180 net.cpp:282] Memory required for data: 982648320
[3] I0619 19:48:51.649880 23187 net.cpp:183] Creating Layer conv2/relu_3x3_reduce
[1] I0619 19:48:51.494329 32264 net.cpp:183] Creating Layer conv2/relu_3x3_reduce
[2] I0619 19:48:51.652515 32946 net.cpp:864] conv2/relu_3x3_reduce <- conv2/3x3_reduce
[0] I0619 19:48:51.649760 32180 layer_factory.hpp:114] Creating layer conv2/3x3
[3] I0619 19:48:51.649909 23187 net.cpp:864] conv2/relu_3x3_reduce <- conv2/3x3_reduce
[1] I0619 19:48:51.494361 32264 net.cpp:864] conv2/relu_3x3_reduce <- conv2/3x3_reduce
[2] I0619 19:48:51.652572 32946 net.cpp:825] conv2/relu_3x3_reduce -> conv2/3x3_reduce (in-place)
[0] I0619 19:48:51.649852 32180 net.cpp:183] Creating Layer conv2/3x3
[3] I0619 19:48:51.649966 23187 net.cpp:825] conv2/relu_3x3_reduce -> conv2/3x3_reduce (in-place)
[1] I0619 19:48:51.494412 32264 net.cpp:825] conv2/relu_3x3_reduce -> conv2/3x3_reduce (in-place)
[2] I0619 19:48:51.652654 32946 net.cpp:267] Setting up conv2/relu_3x3_reduce
[0] I0619 19:48:51.649883 32180 net.cpp:864] conv2/3x3 <- conv2/3x3_reduce
[3] I0619 19:48:51.650041 23187 net.cpp:267] Setting up conv2/relu_3x3_reduce
[1] I0619 19:48:51.494488 32264 net.cpp:267] Setting up conv2/relu_3x3_reduce
[2] I0619 19:48:51.652730 32946 net.cpp:274] Top shape: 96 64 56 56 (19267584)
[0] I0619 19:48:51.649943 32180 net.cpp:838] conv2/3x3 -> conv2/3x3
[3] I0619 19:48:51.650086 23187 net.cpp:274] Top shape: 96 64 56 56 (19267584)
[3] I0619 19:48:51.650110 23187 net.cpp:282] Memory required for data: 982648320
[3] I0619 19:48:51.650135 23187 layer_factory.hpp:114] Creating layer conv2/3x3
[1] I0619 19:48:51.494526 32264 net.cpp:274] Top shape: 96 64 56 56 (19267584)
[2] I0619 19:48:51.652760 32946 net.cpp:282] Memory required for data: 982648320
[3] I0619 19:48:51.650223 23187 net.cpp:183] Creating Layer conv2/3x3
[1] I0619 19:48:51.494554 32264 net.cpp:282] Memory required for data: 982648320
[2] I0619 19:48:51.652786 32946 layer_factory.hpp:114] Creating layer conv2/3x3
[3] I0619 19:48:51.650255 23187 net.cpp:864] conv2/3x3 <- conv2/3x3_reduce
[1] I0619 19:48:51.494578 32264 layer_factory.hpp:114] Creating layer conv2/3x3
[2] I0619 19:48:51.652889 32946 net.cpp:183] Creating Layer conv2/3x3
[3] I0619 19:48:51.650293 23187 net.cpp:838] conv2/3x3 -> conv2/3x3
[1] I0619 19:48:51.494662 32264 net.cpp:183] Creating Layer conv2/3x3
[2] I0619 19:48:51.652921 32946 net.cpp:864] conv2/3x3 <- conv2/3x3_reduce
[1] I0619 19:48:51.494691 32264 net.cpp:864] conv2/3x3 <- conv2/3x3_reduce
[2] I0619 19:48:51.652957 32946 net.cpp:838] conv2/3x3 -> conv2/3x3
[1] I0619 19:48:51.494735 32264 net.cpp:838] conv2/3x3 -> conv2/3x3
[0] I0619 19:48:51.675403 32180 net.cpp:267] Setting up conv2/3x3
[0] I0619 19:48:51.675503 32180 net.cpp:274] Top shape: 96 192 56 56 (57802752)
[0] I0619 19:48:51.675534 32180 net.cpp:282] Memory required for data: 1213859328
[0] I0619 19:48:51.675621 32180 layer_factory.hpp:114] Creating layer conv2/relu_3x3
[0] I0619 19:48:51.675680 32180 net.cpp:183] Creating Layer conv2/relu_3x3
[0] I0619 19:48:51.675706 32180 net.cpp:864] conv2/relu_3x3 <- conv2/3x3
[0] I0619 19:48:51.675740 32180 net.cpp:825] conv2/relu_3x3 -> conv2/3x3 (in-place)
[0] I0619 19:48:51.675827 32180 net.cpp:267] Setting up conv2/relu_3x3
[3] I0619 19:48:51.675848 23187 net.cpp:267] Setting up conv2/3x3
[0] I0619 19:48:51.675869 32180 net.cpp:274] Top shape: 96 192 56 56 (57802752)
[3] I0619 19:48:51.675956 23187 net.cpp:274] Top shape: 96 192 56 56 (57802752)
[3] I0619 19:48:51.675981 23187 net.cpp:282] Memory required for data: 1213859328
[1] I0619 19:48:51.520407 32264 net.cpp:267] Setting up conv2/3x3
[2] I0619 19:48:51.678769 32946 net.cpp:267] Setting up conv2/3x3
[0] I0619 19:48:51.675918 32180 net.cpp:282] Memory required for data: 1445070336
[0] I0619 19:48:51.675945 32180 layer_factory.hpp:114] Creating layer conv2/norm2
[3] I0619 19:48:51.676043 23187 layer_factory.hpp:114] Creating layer conv2/relu_3x3
[1] I0619 19:48:51.520505 32264 net.cpp:274] Top shape: 96 192 56 56 (57802752)
[1] I0619 19:48:51.520529 32264 net.cpp:282] Memory required for data: 1213859328
[2] I0619 19:48:51.678874 32946 net.cpp:274] Top shape: 96 192 56 56 (57802752)
[0] I0619 19:48:51.675990 32180 net.cpp:183] Creating Layer conv2/norm2
[3] I0619 19:48:51.676110 23187 net.cpp:183] Creating Layer conv2/relu_3x3
[3] I0619 19:48:51.676136 23187 net.cpp:864] conv2/relu_3x3 <- conv2/3x3
[1] I0619 19:48:51.520591 32264 layer_factory.hpp:114] Creating layer conv2/relu_3x3
[2] I0619 19:48:51.678897 32946 net.cpp:282] Memory required for data: 1213859328
[0] I0619 19:48:51.676019 32180 net.cpp:864] conv2/norm2 <- conv2/3x3
[0] I0619 19:48:51.676051 32180 net.cpp:838] conv2/norm2 -> conv2/norm2
[3] I0619 19:48:51.676172 23187 net.cpp:825] conv2/relu_3x3 -> conv2/3x3 (in-place)
[1] I0619 19:48:51.520678 32264 net.cpp:183] Creating Layer conv2/relu_3x3
[2] I0619 19:48:51.678972 32946 layer_factory.hpp:114] Creating layer conv2/relu_3x3
[0] I0619 19:48:51.676116 32180 net.cpp:267] Setting up conv2/norm2
[3] I0619 19:48:51.676250 23187 net.cpp:267] Setting up conv2/relu_3x3
[1] I0619 19:48:51.520710 32264 net.cpp:864] conv2/relu_3x3 <- conv2/3x3
[1] I0619 19:48:51.520745 32264 net.cpp:825] conv2/relu_3x3 -> conv2/3x3 (in-place)
[2] I0619 19:48:51.679039 32946 net.cpp:183] Creating Layer conv2/relu_3x3
[0] I0619 19:48:51.676162 32180 net.cpp:274] Top shape: 96 192 56 56 (57802752)
[0] I0619 19:48:51.676184 32180 net.cpp:282] Memory required for data: 1676281344
[3] I0619 19:48:51.676282 23187 net.cpp:274] Top shape: 96 192 56 56 (57802752)
[1] I0619 19:48:51.520809 32264 net.cpp:267] Setting up conv2/relu_3x3
[2] I0619 19:48:51.679074 32946 net.cpp:864] conv2/relu_3x3 <- conv2/3x3
[0] I0619 19:48:51.676208 32180 layer_factory.hpp:114] Creating layer pool2/3x3_s2
[3] I0619 19:48:51.676309 23187 net.cpp:282] Memory required for data: 1445070336
[3] I0619 19:48:51.676334 23187 layer_factory.hpp:114] Creating layer conv2/norm2
[1] I0619 19:48:51.520848 32264 net.cpp:274] Top shape: 96 192 56 56 (57802752)
[1] I0619 19:48:51.520869 32264 net.cpp:282] Memory required for data: 1445070336
[1] I0619 19:48:51.520894 32264 layer_factory.hpp:114] Creating layer conv2/norm2
[2] I0619 19:48:51.679121 32946 net.cpp:825] conv2/relu_3x3 -> conv2/3x3 (in-place)
[3] I0619 19:48:51.676388 23187 net.cpp:183] Creating Layer conv2/norm2
[1] I0619 19:48:51.520946 32264 net.cpp:183] Creating Layer conv2/norm2
[2] I0619 19:48:51.679198 32946 net.cpp:267] Setting up conv2/relu_3x3
[0] I0619 19:48:51.676249 32180 net.cpp:183] Creating Layer pool2/3x3_s2
[3] I0619 19:48:51.676422 23187 net.cpp:864] conv2/norm2 <- conv2/3x3
[1] I0619 19:48:51.520974 32264 net.cpp:864] conv2/norm2 <- conv2/3x3
[1] I0619 19:48:51.521006 32264 net.cpp:838] conv2/norm2 -> conv2/norm2
[2] I0619 19:48:51.679236 32946 net.cpp:274] Top shape: 96 192 56 56 (57802752)
[0] I0619 19:48:51.676277 32180 net.cpp:864] pool2/3x3_s2 <- conv2/norm2
[3] I0619 19:48:51.676456 23187 net.cpp:838] conv2/norm2 -> conv2/norm2
[1] I0619 19:48:51.521095 32264 net.cpp:267] Setting up conv2/norm2
[2] I0619 19:48:51.679265 32946 net.cpp:282] Memory required for data: 1445070336
[0] I0619 19:48:51.676308 32180 net.cpp:838] pool2/3x3_s2 -> pool2/3x3_s2
[3] I0619 19:48:51.676538 23187 net.cpp:267] Setting up conv2/norm2
[1] I0619 19:48:51.521134 32264 net.cpp:274] Top shape: 96 192 56 56 (57802752)
[2] I0619 19:48:51.679301 32946 layer_factory.hpp:114] Creating layer conv2/norm2
[0] I0619 19:48:51.676383 32180 net.cpp:267] Setting up pool2/3x3_s2
[3] I0619 19:48:51.676571 23187 net.cpp:274] Top shape: 96 192 56 56 (57802752)
[3] I0619 19:48:51.676592 23187 net.cpp:282] Memory required for data: 1676281344
[3] I0619 19:48:51.676616 23187 layer_factory.hpp:114] Creating layer pool2/3x3_s2
[1] I0619 19:48:51.521162 32264 net.cpp:282] Memory required for data: 1676281344
[2] I0619 19:48:51.679359 32946 net.cpp:183] Creating Layer conv2/norm2
[0] I0619 19:48:51.676419 32180 net.cpp:274] Top shape: 96 192 28 28 (14450688)
[3] I0619 19:48:51.676668 23187 net.cpp:183] Creating Layer pool2/3x3_s2
[3] I0619 19:48:51.676692 23187 net.cpp:864] pool2/3x3_s2 <- conv2/norm2
[3] I0619 19:48:51.676748 23187 net.cpp:838] pool2/3x3_s2 -> pool2/3x3_s2
[1] I0619 19:48:51.521191 32264 layer_factory.hpp:114] Creating layer pool2/3x3_s2
[2] I0619 19:48:51.679388 32946 net.cpp:864] conv2/norm2 <- conv2/3x3
[0] I0619 19:48:51.676447 32180 net.cpp:282] Memory required for data: 1734084096
[3] I0619 19:48:51.676816 23187 net.cpp:267] Setting up pool2/3x3_s2
[1] I0619 19:48:51.521250 32264 net.cpp:183] Creating Layer pool2/3x3_s2
[2] I0619 19:48:51.679419 32946 net.cpp:838] conv2/norm2 -> conv2/norm2
[0] I0619 19:48:51.676476 32180 layer_factory.hpp:114] Creating layer pool2/3x3_s2_pool2/3x3_s2_0_split
[3] I0619 19:48:51.676865 23187 net.cpp:274] Top shape: 96 192 28 28 (14450688)
[3] I0619 19:48:51.676887 23187 net.cpp:282] Memory required for data: 1734084096
[3] I0619 19:48:51.676911 23187 layer_factory.hpp:114] Creating layer pool2/3x3_s2_pool2/3x3_s2_0_split
[1] I0619 19:48:51.521280 32264 net.cpp:864] pool2/3x3_s2 <- conv2/norm2
[2] I0619 19:48:51.679489 32946 net.cpp:267] Setting up conv2/norm2
[0] I0619 19:48:51.676519 32180 net.cpp:183] Creating Layer pool2/3x3_s2_pool2/3x3_s2_0_split
[3] I0619 19:48:51.676951 23187 net.cpp:183] Creating Layer pool2/3x3_s2_pool2/3x3_s2_0_split
[1] I0619 19:48:51.521311 32264 net.cpp:838] pool2/3x3_s2 -> pool2/3x3_s2
[2] I0619 19:48:51.679528 32946 net.cpp:274] Top shape: 96 192 56 56 (57802752)
[0] I0619 19:48:51.676548 32180 net.cpp:864] pool2/3x3_s2_pool2/3x3_s2_0_split <- pool2/3x3_s2
[3] I0619 19:48:51.676980 23187 net.cpp:864] pool2/3x3_s2_pool2/3x3_s2_0_split <- pool2/3x3_s2
[3] I0619 19:48:51.677012 23187 net.cpp:838] pool2/3x3_s2_pool2/3x3_s2_0_split -> pool2/3x3_s2_pool2/3x3_s2_0_split_0
[1] I0619 19:48:51.521387 32264 net.cpp:267] Setting up pool2/3x3_s2
[2] I0619 19:48:51.679558 32946 net.cpp:282] Memory required for data: 1676281344
[0] I0619 19:48:51.676585 32180 net.cpp:838] pool2/3x3_s2_pool2/3x3_s2_0_split -> pool2/3x3_s2_pool2/3x3_s2_0_split_0
[3] I0619 19:48:51.677048 23187 net.cpp:838] pool2/3x3_s2_pool2/3x3_s2_0_split -> pool2/3x3_s2_pool2/3x3_s2_0_split_1
[1] I0619 19:48:51.521423 32264 net.cpp:274] Top shape: 96 192 28 28 (14450688)
[2] I0619 19:48:51.679582 32946 layer_factory.hpp:114] Creating layer pool2/3x3_s2
[0] I0619 19:48:51.676627 32180 net.cpp:838] pool2/3x3_s2_pool2/3x3_s2_0_split -> pool2/3x3_s2_pool2/3x3_s2_0_split_1
[3] I0619 19:48:51.677098 23187 net.cpp:838] pool2/3x3_s2_pool2/3x3_s2_0_split -> pool2/3x3_s2_pool2/3x3_s2_0_split_2
[3] I0619 19:48:51.677134 23187 net.cpp:838] pool2/3x3_s2_pool2/3x3_s2_0_split -> pool2/3x3_s2_pool2/3x3_s2_0_split_3
[1] I0619 19:48:51.521457 32264 net.cpp:282] Memory required for data: 1734084096
[2] I0619 19:48:51.679639 32946 net.cpp:183] Creating Layer pool2/3x3_s2
[0] I0619 19:48:51.676668 32180 net.cpp:838] pool2/3x3_s2_pool2/3x3_s2_0_split -> pool2/3x3_s2_pool2/3x3_s2_0_split_2
[3] I0619 19:48:51.677201 23187 net.cpp:267] Setting up pool2/3x3_s2_pool2/3x3_s2_0_split
[1] I0619 19:48:51.521488 32264 layer_factory.hpp:114] Creating layer pool2/3x3_s2_pool2/3x3_s2_0_split
[2] I0619 19:48:51.679668 32946 net.cpp:864] pool2/3x3_s2 <- conv2/norm2
[0] I0619 19:48:51.676708 32180 net.cpp:838] pool2/3x3_s2_pool2/3x3_s2_0_split -> pool2/3x3_s2_pool2/3x3_s2_0_split_3
[3] I0619 19:48:51.677237 23187 net.cpp:274] Top shape: 96 192 28 28 (14450688)
[1] I0619 19:48:51.521531 32264 net.cpp:183] Creating Layer pool2/3x3_s2_pool2/3x3_s2_0_split
[2] I0619 19:48:51.679723 32946 net.cpp:838] pool2/3x3_s2 -> pool2/3x3_s2
[0] I0619 19:48:51.676777 32180 net.cpp:267] Setting up pool2/3x3_s2_pool2/3x3_s2_0_split
[3] I0619 19:48:51.677273 23187 net.cpp:274] Top shape: 96 192 28 28 (14450688)
[1] I0619 19:48:51.521559 32264 net.cpp:864] pool2/3x3_s2_pool2/3x3_s2_0_split <- pool2/3x3_s2
[2] I0619 19:48:51.679803 32946 net.cpp:267] Setting up pool2/3x3_s2
[0] I0619 19:48:51.676815 32180 net.cpp:274] Top shape: 96 192 28 28 (14450688)
[3] I0619 19:48:51.677307 23187 net.cpp:274] Top shape: 96 192 28 28 (14450688)
[1] I0619 19:48:51.521589 32264 net.cpp:838] pool2/3x3_s2_pool2/3x3_s2_0_split -> pool2/3x3_s2_pool2/3x3_s2_0_split_0
[2] I0619 19:48:51.679850 32946 net.cpp:274] Top shape: 96 192 28 28 (14450688)
[0] I0619 19:48:51.676849 32180 net.cpp:274] Top shape: 96 192 28 28 (14450688)
[3] I0619 19:48:51.677340 23187 net.cpp:274] Top shape: 96 192 28 28 (14450688)
[1] I0619 19:48:51.521630 32264 net.cpp:838] pool2/3x3_s2_pool2/3x3_s2_0_split -> pool2/3x3_s2_pool2/3x3_s2_0_split_1
[2] I0619 19:48:51.679878 32946 net.cpp:282] Memory required for data: 1734084096
[0] I0619 19:48:51.676882 32180 net.cpp:274] Top shape: 96 192 28 28 (14450688)
[3] I0619 19:48:51.677366 23187 net.cpp:282] Memory required for data: 1965295104
[1] I0619 19:48:51.521670 32264 net.cpp:838] pool2/3x3_s2_pool2/3x3_s2_0_split -> pool2/3x3_s2_pool2/3x3_s2_0_split_2
[2] I0619 19:48:51.679903 32946 layer_factory.hpp:114] Creating layer pool2/3x3_s2_pool2/3x3_s2_0_split
[0] I0619 19:48:51.676934 32180 net.cpp:274] Top shape: 96 192 28 28 (14450688)
[3] I0619 19:48:51.677390 23187 layer_factory.hpp:114] Creating layer inception_3a/1x1
[1] I0619 19:48:51.521718 32264 net.cpp:838] pool2/3x3_s2_pool2/3x3_s2_0_split -> pool2/3x3_s2_pool2/3x3_s2_0_split_3
[2] I0619 19:48:51.679944 32946 net.cpp:183] Creating Layer pool2/3x3_s2_pool2/3x3_s2_0_split
[0] I0619 19:48:51.676960 32180 net.cpp:282] Memory required for data: 1965295104
[3] I0619 19:48:51.677474 23187 net.cpp:183] Creating Layer inception_3a/1x1
[1] I0619 19:48:51.521783 32264 net.cpp:267] Setting up pool2/3x3_s2_pool2/3x3_s2_0_split
[2] I0619 19:48:51.679973 32946 net.cpp:864] pool2/3x3_s2_pool2/3x3_s2_0_split <- pool2/3x3_s2
[0] I0619 19:48:51.676983 32180 layer_factory.hpp:114] Creating layer inception_3a/1x1
[3] I0619 19:48:51.677503 23187 net.cpp:864] inception_3a/1x1 <- pool2/3x3_s2_pool2/3x3_s2_0_split_0
[1] I0619 19:48:51.521821 32264 net.cpp:274] Top shape: 96 192 28 28 (14450688)
[2] I0619 19:48:51.680003 32946 net.cpp:838] pool2/3x3_s2_pool2/3x3_s2_0_split -> pool2/3x3_s2_pool2/3x3_s2_0_split_0
[0] I0619 19:48:51.677060 32180 net.cpp:183] Creating Layer inception_3a/1x1
[3] I0619 19:48:51.677553 23187 net.cpp:838] inception_3a/1x1 -> inception_3a/1x1
[1] I0619 19:48:51.521857 32264 net.cpp:274] Top shape: 96 192 28 28 (14450688)
[1] I0619 19:48:51.521884 32264 net.cpp:274] Top shape: 96 192 28 28 (14450688)
[1] I0619 19:48:51.521912 32264 net.cpp:274] Top shape: 96 192 28 28 (14450688)
[2] I0619 19:48:51.680047 32946 net.cpp:838] pool2/3x3_s2_pool2/3x3_s2_0_split -> pool2/3x3_s2_pool2/3x3_s2_0_split_1
[0] I0619 19:48:51.677090 32180 net.cpp:864] inception_3a/1x1 <- pool2/3x3_s2_pool2/3x3_s2_0_split_0
[1] I0619 19:48:51.521932 32264 net.cpp:282] Memory required for data: 1965295104
[2] I0619 19:48:51.680096 32946 net.cpp:838] pool2/3x3_s2_pool2/3x3_s2_0_split -> pool2/3x3_s2_pool2/3x3_s2_0_split_2
[0] I0619 19:48:51.677139 32180 net.cpp:838] inception_3a/1x1 -> inception_3a/1x1
[1] I0619 19:48:51.521956 32264 layer_factory.hpp:114] Creating layer inception_3a/1x1
[2] I0619 19:48:51.680140 32946 net.cpp:838] pool2/3x3_s2_pool2/3x3_s2_0_split -> pool2/3x3_s2_pool2/3x3_s2_0_split_3
[1] I0619 19:48:51.522034 32264 net.cpp:183] Creating Layer inception_3a/1x1
[2] I0619 19:48:51.680217 32946 net.cpp:267] Setting up pool2/3x3_s2_pool2/3x3_s2_0_split
[1] I0619 19:48:51.522083 32264 net.cpp:864] inception_3a/1x1 <- pool2/3x3_s2_pool2/3x3_s2_0_split_0
[2] I0619 19:48:51.680254 32946 net.cpp:274] Top shape: 96 192 28 28 (14450688)
[1] I0619 19:48:51.522122 32264 net.cpp:838] inception_3a/1x1 -> inception_3a/1x1
[2] I0619 19:48:51.680292 32946 net.cpp:274] Top shape: 96 192 28 28 (14450688)
[2] I0619 19:48:51.680327 32946 net.cpp:274] Top shape: 96 192 28 28 (14450688)
[2] I0619 19:48:51.680363 32946 net.cpp:274] Top shape: 96 192 28 28 (14450688)
[2] I0619 19:48:51.680390 32946 net.cpp:282] Memory required for data: 1965295104
[2] I0619 19:48:51.680414 32946 layer_factory.hpp:114] Creating layer inception_3a/1x1
[2] I0619 19:48:51.680493 32946 net.cpp:183] Creating Layer inception_3a/1x1
[2] I0619 19:48:51.680523 32946 net.cpp:864] inception_3a/1x1 <- pool2/3x3_s2_pool2/3x3_s2_0_split_0
[2] I0619 19:48:51.680565 32946 net.cpp:838] inception_3a/1x1 -> inception_3a/1x1
[0] I0619 19:48:51.691859 32180 net.cpp:267] Setting up inception_3a/1x1
[0] I0619 19:48:51.691993 32180 net.cpp:274] Top shape: 96 64 28 28 (4816896)
[0] I0619 19:48:51.692018 32180 net.cpp:282] Memory required for data: 1984562688
[0] I0619 19:48:51.692067 32180 layer_factory.hpp:114] Creating layer inception_3a/relu_1x1
[0] I0619 19:48:51.692147 32180 net.cpp:183] Creating Layer inception_3a/relu_1x1
[0] I0619 19:48:51.692178 32180 net.cpp:864] inception_3a/relu_1x1 <- inception_3a/1x1
[0] I0619 19:48:51.692214 32180 net.cpp:825] inception_3a/relu_1x1 -> inception_3a/1x1 (in-place)
[0] I0619 19:48:51.692277 32180 net.cpp:267] Setting up inception_3a/relu_1x1
[0] I0619 19:48:51.692322 32180 net.cpp:274] Top shape: 96 64 28 28 (4816896)
[0] I0619 19:48:51.692343 32180 net.cpp:282] Memory required for data: 2003830272
[0] I0619 19:48:51.692378 32180 layer_factory.hpp:114] Creating layer inception_3a/3x3_reduce
[0] I0619 19:48:51.692458 32180 net.cpp:183] Creating Layer inception_3a/3x3_reduce
[3] I0619 19:48:51.692539 23187 net.cpp:267] Setting up inception_3a/1x1
[0] I0619 19:48:51.692486 32180 net.cpp:864] inception_3a/3x3_reduce <- pool2/3x3_s2_pool2/3x3_s2_0_split_1
[3] I0619 19:48:51.692653 23187 net.cpp:274] Top shape: 96 64 28 28 (4816896)
[3] I0619 19:48:51.692680 23187 net.cpp:282] Memory required for data: 1984562688
[1] I0619 19:48:51.537031 32264 net.cpp:267] Setting up inception_3a/1x1
[0] I0619 19:48:51.692525 32180 net.cpp:838] inception_3a/3x3_reduce -> inception_3a/3x3_reduce
[3] I0619 19:48:51.692760 23187 layer_factory.hpp:114] Creating layer inception_3a/relu_1x1
[1] I0619 19:48:51.537166 32264 net.cpp:274] Top shape: 96 64 28 28 (4816896)
[1] I0619 19:48:51.537190 32264 net.cpp:282] Memory required for data: 1984562688
[2] I0619 19:48:51.695754 32946 net.cpp:267] Setting up inception_3a/1x1
[3] I0619 19:48:51.692847 23187 net.cpp:183] Creating Layer inception_3a/relu_1x1
[1] I0619 19:48:51.537241 32264 layer_factory.hpp:114] Creating layer inception_3a/relu_1x1
[2] I0619 19:48:51.695860 32946 net.cpp:274] Top shape: 96 64 28 28 (4816896)
[3] I0619 19:48:51.692881 23187 net.cpp:864] inception_3a/relu_1x1 <- inception_3a/1x1
[1] I0619 19:48:51.537312 32264 net.cpp:183] Creating Layer inception_3a/relu_1x1
[2] I0619 19:48:51.695885 32946 net.cpp:282] Memory required for data: 1984562688
[3] I0619 19:48:51.692925 23187 net.cpp:825] inception_3a/relu_1x1 -> inception_3a/1x1 (in-place)
[1] I0619 19:48:51.537438 32264 net.cpp:864] inception_3a/relu_1x1 <- inception_3a/1x1
[2] I0619 19:48:51.695948 32946 layer_factory.hpp:114] Creating layer inception_3a/relu_1x1
[3] I0619 19:48:51.692994 23187 net.cpp:267] Setting up inception_3a/relu_1x1
[1] I0619 19:48:51.537482 32264 net.cpp:825] inception_3a/relu_1x1 -> inception_3a/1x1 (in-place)
[2] I0619 19:48:51.696022 32946 net.cpp:183] Creating Layer inception_3a/relu_1x1
[3] I0619 19:48:51.693032 23187 net.cpp:274] Top shape: 96 64 28 28 (4816896)
[3] I0619 19:48:51.693053 23187 net.cpp:282] Memory required for data: 2003830272
[3] I0619 19:48:51.693078 23187 layer_factory.hpp:114] Creating layer inception_3a/3x3_reduce
[1] I0619 19:48:51.537560 32264 net.cpp:267] Setting up inception_3a/relu_1x1
[2] I0619 19:48:51.696055 32946 net.cpp:864] inception_3a/relu_1x1 <- inception_3a/1x1
[3] I0619 19:48:51.693159 23187 net.cpp:183] Creating Layer inception_3a/3x3_reduce
[1] I0619 19:48:51.537600 32264 net.cpp:274] Top shape: 96 64 28 28 (4816896)
[1] I0619 19:48:51.537622 32264 net.cpp:282] Memory required for data: 2003830272
[2] I0619 19:48:51.696101 32946 net.cpp:825] inception_3a/relu_1x1 -> inception_3a/1x1 (in-place)
[3] I0619 19:48:51.693192 23187 net.cpp:864] inception_3a/3x3_reduce <- pool2/3x3_s2_pool2/3x3_s2_0_split_1
[1] I0619 19:48:51.537645 32264 layer_factory.hpp:114] Creating layer inception_3a/3x3_reduce
[2] I0619 19:48:51.696171 32946 net.cpp:267] Setting up inception_3a/relu_1x1
[3] I0619 19:48:51.693228 23187 net.cpp:838] inception_3a/3x3_reduce -> inception_3a/3x3_reduce
[1] I0619 19:48:51.537736 32264 net.cpp:183] Creating Layer inception_3a/3x3_reduce
[2] I0619 19:48:51.696208 32946 net.cpp:274] Top shape: 96 64 28 28 (4816896)
[2] I0619 19:48:51.696238 32946 net.cpp:282] Memory required for data: 2003830272
[2] I0619 19:48:51.696270 32946 layer_factory.hpp:114] Creating layer inception_3a/3x3_reduce
[2] I0619 19:48:51.696360 32946 net.cpp:183] Creating Layer inception_3a/3x3_reduce
[2] I0619 19:48:51.696393 32946 net.cpp:864] inception_3a/3x3_reduce <- pool2/3x3_s2_pool2/3x3_s2_0_split_1
[2] I0619 19:48:51.696429 32946 net.cpp:838] inception_3a/3x3_reduce -> inception_3a/3x3_reduce
[1] I0619 19:48:51.537770 32264 net.cpp:864] inception_3a/3x3_reduce <- pool2/3x3_s2_pool2/3x3_s2_0_split_1
[1] I0619 19:48:51.537825 32264 net.cpp:838] inception_3a/3x3_reduce -> inception_3a/3x3_reduce
[0] I0619 19:48:51.707391 32180 net.cpp:267] Setting up inception_3a/3x3_reduce
[0] I0619 19:48:51.707490 32180 net.cpp:274] Top shape: 96 96 28 28 (7225344)
[0] I0619 19:48:51.707515 32180 net.cpp:282] Memory required for data: 2032731648
[0] I0619 19:48:51.707581 32180 layer_factory.hpp:114] Creating layer inception_3a/relu_3x3_reduce
[0] I0619 19:48:51.707669 32180 net.cpp:183] Creating Layer inception_3a/relu_3x3_reduce
[0] I0619 19:48:51.707703 32180 net.cpp:864] inception_3a/relu_3x3_reduce <- inception_3a/3x3_reduce
[0] I0619 19:48:51.707739 32180 net.cpp:825] inception_3a/relu_3x3_reduce -> inception_3a/3x3_reduce (in-place)
[0] I0619 19:48:51.707808 32180 net.cpp:267] Setting up inception_3a/relu_3x3_reduce
[0] I0619 19:48:51.707845 32180 net.cpp:274] Top shape: 96 96 28 28 (7225344)
[0] I0619 19:48:51.707868 32180 net.cpp:282] Memory required for data: 2061633024
[3] I0619 19:48:51.707900 23187 net.cpp:267] Setting up inception_3a/3x3_reduce
[0] I0619 19:48:51.707917 32180 layer_factory.hpp:114] Creating layer inception_3a/3x3
[3] I0619 19:48:51.708001 23187 net.cpp:274] Top shape: 96 96 28 28 (7225344)
[3] I0619 19:48:51.708026 23187 net.cpp:282] Memory required for data: 2032731648
[0] I0619 19:48:51.708000 32180 net.cpp:183] Creating Layer inception_3a/3x3
[0] I0619 19:48:51.708025 32180 net.cpp:864] inception_3a/3x3 <- inception_3a/3x3_reduce
[3] I0619 19:48:51.708092 23187 layer_factory.hpp:114] Creating layer inception_3a/relu_3x3_reduce
[0] I0619 19:48:51.708060 32180 net.cpp:838] inception_3a/3x3 -> inception_3a/3x3
[3] I0619 19:48:51.708179 23187 net.cpp:183] Creating Layer inception_3a/relu_3x3_reduce
[3] I0619 19:48:51.708216 23187 net.cpp:864] inception_3a/relu_3x3_reduce <- inception_3a/3x3_reduce
[3] I0619 19:48:51.708254 23187 net.cpp:825] inception_3a/relu_3x3_reduce -> inception_3a/3x3_reduce (in-place)
[3] I0619 19:48:51.708330 23187 net.cpp:267] Setting up inception_3a/relu_3x3_reduce
[3] I0619 19:48:51.708370 23187 net.cpp:274] Top shape: 96 96 28 28 (7225344)
[3] I0619 19:48:51.708392 23187 net.cpp:282] Memory required for data: 2061633024
[1] I0619 19:48:51.552989 32264 net.cpp:267] Setting up inception_3a/3x3_reduce
[3] I0619 19:48:51.708417 23187 layer_factory.hpp:114] Creating layer inception_3a/3x3
[1] I0619 19:48:51.553123 32264 net.cpp:274] Top shape: 96 96 28 28 (7225344)
[1] I0619 19:48:51.553148 32264 net.cpp:282] Memory required for data: 2032731648
[3] I0619 19:48:51.708500 23187 net.cpp:183] Creating Layer inception_3a/3x3
[1] I0619 19:48:51.553215 32264 layer_factory.hpp:114] Creating layer inception_3a/relu_3x3_reduce
[3] I0619 19:48:51.708525 23187 net.cpp:864] inception_3a/3x3 <- inception_3a/3x3_reduce
[1] I0619 19:48:51.553287 32264 net.cpp:183] Creating Layer inception_3a/relu_3x3_reduce
[3] I0619 19:48:51.708575 23187 net.cpp:838] inception_3a/3x3 -> inception_3a/3x3
[1] I0619 19:48:51.553316 32264 net.cpp:864] inception_3a/relu_3x3_reduce <- inception_3a/3x3_reduce
[2] I0619 19:48:51.711508 32946 net.cpp:267] Setting up inception_3a/3x3_reduce
[1] I0619 19:48:51.553375 32264 net.cpp:825] inception_3a/relu_3x3_reduce -> inception_3a/3x3_reduce (in-place)
[2] I0619 19:48:51.711612 32946 net.cpp:274] Top shape: 96 96 28 28 (7225344)
[1] I0619 19:48:51.553447 32264 net.cpp:267] Setting up inception_3a/relu_3x3_reduce
[2] I0619 19:48:51.711637 32946 net.cpp:282] Memory required for data: 2032731648
[1] I0619 19:48:51.553489 32264 net.cpp:274] Top shape: 96 96 28 28 (7225344)
[1] I0619 19:48:51.553513 32264 net.cpp:282] Memory required for data: 2061633024
[1] I0619 19:48:51.553537 32264 layer_factory.hpp:114] Creating layer inception_3a/3x3
[2] I0619 19:48:51.711742 32946 layer_factory.hpp:114] Creating layer inception_3a/relu_3x3_reduce
[1] I0619 19:48:51.553614 32264 net.cpp:183] Creating Layer inception_3a/3x3
[2] I0619 19:48:51.711833 32946 net.cpp:183] Creating Layer inception_3a/relu_3x3_reduce
[1] I0619 19:48:51.553644 32264 net.cpp:864] inception_3a/3x3 <- inception_3a/3x3_reduce
[2] I0619 19:48:51.711869 32946 net.cpp:864] inception_3a/relu_3x3_reduce <- inception_3a/3x3_reduce
[1] I0619 19:48:51.553689 32264 net.cpp:838] inception_3a/3x3 -> inception_3a/3x3
[2] I0619 19:48:51.711915 32946 net.cpp:825] inception_3a/relu_3x3_reduce -> inception_3a/3x3_reduce (in-place)
[2] I0619 19:48:51.711987 32946 net.cpp:267] Setting up inception_3a/relu_3x3_reduce
[2] I0619 19:48:51.712025 32946 net.cpp:274] Top shape: 96 96 28 28 (7225344)
[2] I0619 19:48:51.712059 32946 net.cpp:282] Memory required for data: 2061633024
[2] I0619 19:48:51.712090 32946 layer_factory.hpp:114] Creating layer inception_3a/3x3
[2] I0619 19:48:51.712173 32946 net.cpp:183] Creating Layer inception_3a/3x3
[2] I0619 19:48:51.712204 32946 net.cpp:864] inception_3a/3x3 <- inception_3a/3x3_reduce
[2] I0619 19:48:51.712249 32946 net.cpp:838] inception_3a/3x3 -> inception_3a/3x3
[0] I0619 19:48:51.731434 32180 net.cpp:267] Setting up inception_3a/3x3
[0] I0619 19:48:51.731536 32180 net.cpp:274] Top shape: 96 128 28 28 (9633792)
[3] I0619 19:48:51.731231 23187 net.cpp:267] Setting up inception_3a/3x3
[0] I0619 19:48:51.731561 32180 net.cpp:282] Memory required for data: 2100168192
[0] I0619 19:48:51.731612 32180 layer_factory.hpp:114] Creating layer inception_3a/relu_3x3
[3] I0619 19:48:51.731330 23187 net.cpp:274] Top shape: 96 128 28 28 (9633792)
[3] I0619 19:48:51.731354 23187 net.cpp:282] Memory required for data: 2100168192
[0] I0619 19:48:51.731683 32180 net.cpp:183] Creating Layer inception_3a/relu_3x3
[3] I0619 19:48:51.731405 23187 layer_factory.hpp:114] Creating layer inception_3a/relu_3x3
[0] I0619 19:48:51.731719 32180 net.cpp:864] inception_3a/relu_3x3 <- inception_3a/3x3
[3] I0619 19:48:51.731477 23187 net.cpp:183] Creating Layer inception_3a/relu_3x3
[0] I0619 19:48:51.731755 32180 net.cpp:825] inception_3a/relu_3x3 -> inception_3a/3x3 (in-place)
[3] I0619 19:48:51.731513 23187 net.cpp:864] inception_3a/relu_3x3 <- inception_3a/3x3
[0] I0619 19:48:51.731829 32180 net.cpp:267] Setting up inception_3a/relu_3x3
[3] I0619 19:48:51.731547 23187 net.cpp:825] inception_3a/relu_3x3 -> inception_3a/3x3 (in-place)
[1] I0619 19:48:51.576673 32264 net.cpp:267] Setting up inception_3a/3x3
[0] I0619 19:48:51.731869 32180 net.cpp:274] Top shape: 96 128 28 28 (9633792)
[0] I0619 19:48:51.731914 32180 net.cpp:282] Memory required for data: 2138703360
[3] I0619 19:48:51.731621 23187 net.cpp:267] Setting up inception_3a/relu_3x3
[1] I0619 19:48:51.576774 32264 net.cpp:274] Top shape: 96 128 28 28 (9633792)
[1] I0619 19:48:51.576799 32264 net.cpp:282] Memory required for data: 2100168192
[1] I0619 19:48:51.576851 32264 layer_factory.hpp:114] Creating layer inception_3a/relu_3x3
[0] I0619 19:48:51.731945 32180 layer_factory.hpp:114] Creating layer inception_3a/5x5_reduce
[3] I0619 19:48:51.731657 23187 net.cpp:274] Top shape: 96 128 28 28 (9633792)
[3] I0619 19:48:51.731679 23187 net.cpp:282] Memory required for data: 2138703360
[1] I0619 19:48:51.576910 32264 net.cpp:183] Creating Layer inception_3a/relu_3x3
[0] I0619 19:48:51.732043 32180 net.cpp:183] Creating Layer inception_3a/5x5_reduce
[3] I0619 19:48:51.731726 23187 layer_factory.hpp:114] Creating layer inception_3a/5x5_reduce
[1] I0619 19:48:51.576944 32264 net.cpp:864] inception_3a/relu_3x3 <- inception_3a/3x3
[0] I0619 19:48:51.732076 32180 net.cpp:864] inception_3a/5x5_reduce <- pool2/3x3_s2_pool2/3x3_s2_0_split_2
[3] I0619 19:48:51.731806 23187 net.cpp:183] Creating Layer inception_3a/5x5_reduce
[1] I0619 19:48:51.576990 32264 net.cpp:825] inception_3a/relu_3x3 -> inception_3a/3x3 (in-place)
[2] I0619 19:48:51.735343 32946 net.cpp:267] Setting up inception_3a/3x3
[0] I0619 19:48:51.732130 32180 net.cpp:838] inception_3a/5x5_reduce -> inception_3a/5x5_reduce
[3] I0619 19:48:51.731840 23187 net.cpp:864] inception_3a/5x5_reduce <- pool2/3x3_s2_pool2/3x3_s2_0_split_2
[3] I0619 19:48:51.731894 23187 net.cpp:838] inception_3a/5x5_reduce -> inception_3a/5x5_reduce
[1] I0619 19:48:51.577088 32264 net.cpp:267] Setting up inception_3a/relu_3x3
[2] I0619 19:48:51.735441 32946 net.cpp:274] Top shape: 96 128 28 28 (9633792)
[1] I0619 19:48:51.577128 32264 net.cpp:274] Top shape: 96 128 28 28 (9633792)
[1] I0619 19:48:51.577150 32264 net.cpp:282] Memory required for data: 2138703360
[2] I0619 19:48:51.735466 32946 net.cpp:282] Memory required for data: 2100168192
[1] I0619 19:48:51.577174 32264 layer_factory.hpp:114] Creating layer inception_3a/5x5_reduce
[2] I0619 19:48:51.735515 32946 layer_factory.hpp:114] Creating layer inception_3a/relu_3x3
[1] I0619 19:48:51.577261 32264 net.cpp:183] Creating Layer inception_3a/5x5_reduce
[2] I0619 19:48:51.735591 32946 net.cpp:183] Creating Layer inception_3a/relu_3x3
[1] I0619 19:48:51.577293 32264 net.cpp:864] inception_3a/5x5_reduce <- pool2/3x3_s2_pool2/3x3_s2_0_split_2
[2] I0619 19:48:51.735625 32946 net.cpp:864] inception_3a/relu_3x3 <- inception_3a/3x3
[1] I0619 19:48:51.577338 32264 net.cpp:838] inception_3a/5x5_reduce -> inception_3a/5x5_reduce
[2] I0619 19:48:51.735669 32946 net.cpp:825] inception_3a/relu_3x3 -> inception_3a/3x3 (in-place)
[2] I0619 19:48:51.735777 32946 net.cpp:267] Setting up inception_3a/relu_3x3
[2] I0619 19:48:51.735816 32946 net.cpp:274] Top shape: 96 128 28 28 (9633792)
[2] I0619 19:48:51.735847 32946 net.cpp:282] Memory required for data: 2138703360
[2] I0619 19:48:51.735879 32946 layer_factory.hpp:114] Creating layer inception_3a/5x5_reduce
[2] I0619 19:48:51.735961 32946 net.cpp:183] Creating Layer inception_3a/5x5_reduce
[2] I0619 19:48:51.735996 32946 net.cpp:864] inception_3a/5x5_reduce <- pool2/3x3_s2_pool2/3x3_s2_0_split_2
[2] I0619 19:48:51.736048 32946 net.cpp:838] inception_3a/5x5_reduce -> inception_3a/5x5_reduce
[0] I0619 19:48:51.745347 32180 net.cpp:267] Setting up inception_3a/5x5_reduce
[3] I0619 19:48:51.745319 23187 net.cpp:267] Setting up inception_3a/5x5_reduce
[0] I0619 19:48:51.745455 32180 net.cpp:274] Top shape: 96 16 28 28 (1204224)
[0] I0619 19:48:51.745478 32180 net.cpp:282] Memory required for data: 2143520256
[3] I0619 19:48:51.745419 23187 net.cpp:274] Top shape: 96 16 28 28 (1204224)
[3] I0619 19:48:51.745443 23187 net.cpp:282] Memory required for data: 2143520256
[3] I0619 19:48:51.745494 23187 layer_factory.hpp:114] Creating layer inception_3a/relu_5x5_reduce
[0] I0619 19:48:51.745529 32180 layer_factory.hpp:114] Creating layer inception_3a/relu_5x5_reduce
[3] I0619 19:48:51.745566 23187 net.cpp:183] Creating Layer inception_3a/relu_5x5_reduce
[0] I0619 19:48:51.745589 32180 net.cpp:183] Creating Layer inception_3a/relu_5x5_reduce
[3] I0619 19:48:51.745601 23187 net.cpp:864] inception_3a/relu_5x5_reduce <- inception_3a/5x5_reduce
[0] I0619 19:48:51.745623 32180 net.cpp:864] inception_3a/relu_5x5_reduce <- inception_3a/5x5_reduce
[3] I0619 19:48:51.745637 23187 net.cpp:825] inception_3a/relu_5x5_reduce -> inception_3a/5x5_reduce (in-place)
[0] I0619 19:48:51.745671 32180 net.cpp:825] inception_3a/relu_5x5_reduce -> inception_3a/5x5_reduce (in-place)
[3] I0619 19:48:51.745829 23187 net.cpp:267] Setting up inception_3a/relu_5x5_reduce
[0] I0619 19:48:51.745842 32180 net.cpp:267] Setting up inception_3a/relu_5x5_reduce
[3] I0619 19:48:51.745883 23187 net.cpp:274] Top shape: 96 16 28 28 (1204224)
[0] I0619 19:48:51.745887 32180 net.cpp:274] Top shape: 96 16 28 28 (1204224)
[3] I0619 19:48:51.745911 23187 net.cpp:282] Memory required for data: 2148337152
[3] I0619 19:48:51.745937 23187 layer_factory.hpp:114] Creating layer inception_3a/5x5
[1] I0619 19:48:51.590560 32264 net.cpp:267] Setting up inception_3a/5x5_reduce
[0] I0619 19:48:51.745934 32180 net.cpp:282] Memory required for data: 2148337152
[3] I0619 19:48:51.746021 23187 net.cpp:183] Creating Layer inception_3a/5x5
[1] I0619 19:48:51.590658 32264 net.cpp:274] Top shape: 96 16 28 28 (1204224)
[1] I0619 19:48:51.590683 32264 net.cpp:282] Memory required for data: 2143520256
[1] I0619 19:48:51.590735 32264 layer_factory.hpp:114] Creating layer inception_3a/relu_5x5_reduce
[0] I0619 19:48:51.745970 32180 layer_factory.hpp:114] Creating layer inception_3a/5x5
[3] I0619 19:48:51.746052 23187 net.cpp:864] inception_3a/5x5 <- inception_3a/5x5_reduce
[1] I0619 19:48:51.590807 32264 net.cpp:183] Creating Layer inception_3a/relu_5x5_reduce
[0] I0619 19:48:51.746052 32180 net.cpp:183] Creating Layer inception_3a/5x5
[3] I0619 19:48:51.746098 23187 net.cpp:838] inception_3a/5x5 -> inception_3a/5x5
[1] I0619 19:48:51.590842 32264 net.cpp:864] inception_3a/relu_5x5_reduce <- inception_3a/5x5_reduce
[0] I0619 19:48:51.746079 32180 net.cpp:864] inception_3a/5x5 <- inception_3a/5x5_reduce
[1] I0619 19:48:51.590878 32264 net.cpp:825] inception_3a/relu_5x5_reduce -> inception_3a/5x5_reduce (in-place)
[0] I0619 19:48:51.746134 32180 net.cpp:838] inception_3a/5x5 -> inception_3a/5x5
[1] I0619 19:48:51.591063 32264 net.cpp:267] Setting up inception_3a/relu_5x5_reduce
[1] I0619 19:48:51.591120 32264 net.cpp:274] Top shape: 96 16 28 28 (1204224)
[1] I0619 19:48:51.591142 32264 net.cpp:282] Memory required for data: 2148337152
[1] I0619 19:48:51.591167 32264 layer_factory.hpp:114] Creating layer inception_3a/5x5
[1] I0619 19:48:51.591248 32264 net.cpp:183] Creating Layer inception_3a/5x5
[2] I0619 19:48:51.749838 32946 net.cpp:267] Setting up inception_3a/5x5_reduce
[1] I0619 19:48:51.591279 32264 net.cpp:864] inception_3a/5x5 <- inception_3a/5x5_reduce
[2] I0619 19:48:51.749938 32946 net.cpp:274] Top shape: 96 16 28 28 (1204224)
[1] I0619 19:48:51.591315 32264 net.cpp:838] inception_3a/5x5 -> inception_3a/5x5
[2] I0619 19:48:51.749963 32946 net.cpp:282] Memory required for data: 2143520256
[2] I0619 19:48:51.750033 32946 layer_factory.hpp:114] Creating layer inception_3a/relu_5x5_reduce
[2] I0619 19:48:51.750110 32946 net.cpp:183] Creating Layer inception_3a/relu_5x5_reduce
[2] I0619 19:48:51.750147 32946 net.cpp:864] inception_3a/relu_5x5_reduce <- inception_3a/5x5_reduce
[2] I0619 19:48:51.750190 32946 net.cpp:825] inception_3a/relu_5x5_reduce -> inception_3a/5x5_reduce (in-place)
[2] I0619 19:48:51.750349 32946 net.cpp:267] Setting up inception_3a/relu_5x5_reduce
[2] I0619 19:48:51.750408 32946 net.cpp:274] Top shape: 96 16 28 28 (1204224)
[2] I0619 19:48:51.750438 32946 net.cpp:282] Memory required for data: 2148337152
[2] I0619 19:48:51.750463 32946 layer_factory.hpp:114] Creating layer inception_3a/5x5
[2] I0619 19:48:51.750550 32946 net.cpp:183] Creating Layer inception_3a/5x5
[2] I0619 19:48:51.750581 32946 net.cpp:864] inception_3a/5x5 <- inception_3a/5x5_reduce
[2] I0619 19:48:51.750624 32946 net.cpp:838] inception_3a/5x5 -> inception_3a/5x5
[0] I0619 19:48:51.767738 32180 net.cpp:267] Setting up inception_3a/5x5
[3] I0619 19:48:51.767603 23187 net.cpp:267] Setting up inception_3a/5x5
[0] I0619 19:48:51.767839 32180 net.cpp:274] Top shape: 96 32 28 28 (2408448)
[0] I0619 19:48:51.767865 32180 net.cpp:282] Memory required for data: 2157970944
[3] I0619 19:48:51.767732 23187 net.cpp:274] Top shape: 96 32 28 28 (2408448)
[3] I0619 19:48:51.767758 23187 net.cpp:282] Memory required for data: 2157970944
[0] I0619 19:48:51.767946 32180 layer_factory.hpp:114] Creating layer inception_3a/relu_5x5
[3] I0619 19:48:51.767812 23187 layer_factory.hpp:114] Creating layer inception_3a/relu_5x5
[0] I0619 19:48:51.768018 32180 net.cpp:183] Creating Layer inception_3a/relu_5x5
[3] I0619 19:48:51.767884 23187 net.cpp:183] Creating Layer inception_3a/relu_5x5
[0] I0619 19:48:51.768054 32180 net.cpp:864] inception_3a/relu_5x5 <- inception_3a/5x5
[3] I0619 19:48:51.767920 23187 net.cpp:864] inception_3a/relu_5x5 <- inception_3a/5x5
[0] I0619 19:48:51.768090 32180 net.cpp:825] inception_3a/relu_5x5 -> inception_3a/5x5 (in-place)
[3] I0619 19:48:51.767962 23187 net.cpp:825] inception_3a/relu_5x5 -> inception_3a/5x5 (in-place)
[0] I0619 19:48:51.768168 32180 net.cpp:267] Setting up inception_3a/relu_5x5
[3] I0619 19:48:51.768038 23187 net.cpp:267] Setting up inception_3a/relu_5x5
[0] I0619 19:48:51.768208 32180 net.cpp:274] Top shape: 96 32 28 28 (2408448)
[0] I0619 19:48:51.768229 32180 net.cpp:282] Memory required for data: 2167604736
[3] I0619 19:48:51.768075 23187 net.cpp:274] Top shape: 96 32 28 28 (2408448)
[3] I0619 19:48:51.768097 23187 net.cpp:282] Memory required for data: 2167604736
[3] I0619 19:48:51.768121 23187 layer_factory.hpp:114] Creating layer inception_3a/pool
[0] I0619 19:48:51.768254 32180 layer_factory.hpp:114] Creating layer inception_3a/pool
[3] I0619 19:48:51.768173 23187 net.cpp:183] Creating Layer inception_3a/pool
[0] I0619 19:48:51.768316 32180 net.cpp:183] Creating Layer inception_3a/pool
[0] I0619 19:48:51.768344 32180 net.cpp:864] inception_3a/pool <- pool2/3x3_s2_pool2/3x3_s2_0_split_3
[3] I0619 19:48:51.768205 23187 net.cpp:864] inception_3a/pool <- pool2/3x3_s2_pool2/3x3_s2_0_split_3
[3] I0619 19:48:51.768239 23187 net.cpp:838] inception_3a/pool -> inception_3a/pool
[0] I0619 19:48:51.768376 32180 net.cpp:838] inception_3a/pool -> inception_3a/pool
[3] I0619 19:48:51.768309 23187 net.cpp:267] Setting up inception_3a/pool
[0] I0619 19:48:51.768455 32180 net.cpp:267] Setting up inception_3a/pool
[3] I0619 19:48:51.768347 23187 net.cpp:274] Top shape: 96 192 28 28 (14450688)
[3] I0619 19:48:51.768369 23187 net.cpp:282] Memory required for data: 2225407488
[0] I0619 19:48:51.768488 32180 net.cpp:274] Top shape: 96 192 28 28 (14450688)
[3] I0619 19:48:51.768393 23187 layer_factory.hpp:114] Creating layer inception_3a/pool_proj
[0] I0619 19:48:51.768515 32180 net.cpp:282] Memory required for data: 2225407488
[3] I0619 19:48:51.768481 23187 net.cpp:183] Creating Layer inception_3a/pool_proj
[0] I0619 19:48:51.768539 32180 layer_factory.hpp:114] Creating layer inception_3a/pool_proj
[3] I0619 19:48:51.768504 23187 net.cpp:864] inception_3a/pool_proj <- inception_3a/pool
[0] I0619 19:48:51.768613 32180 net.cpp:183] Creating Layer inception_3a/pool_proj
[3] I0619 19:48:51.768544 23187 net.cpp:838] inception_3a/pool_proj -> inception_3a/pool_proj
[1] I0619 19:48:51.613343 32264 net.cpp:267] Setting up inception_3a/5x5
[0] I0619 19:48:51.768643 32180 net.cpp:864] inception_3a/pool_proj <- inception_3a/pool
[1] I0619 19:48:51.613442 32264 net.cpp:274] Top shape: 96 32 28 28 (2408448)
[1] I0619 19:48:51.613466 32264 net.cpp:282] Memory required for data: 2157970944
[1] I0619 19:48:51.613517 32264 layer_factory.hpp:114] Creating layer inception_3a/relu_5x5
[0] I0619 19:48:51.768679 32180 net.cpp:838] inception_3a/pool_proj -> inception_3a/pool_proj
[1] I0619 19:48:51.613590 32264 net.cpp:183] Creating Layer inception_3a/relu_5x5
[1] I0619 19:48:51.613626 32264 net.cpp:864] inception_3a/relu_5x5 <- inception_3a/5x5
[1] I0619 19:48:51.613668 32264 net.cpp:825] inception_3a/relu_5x5 -> inception_3a/5x5 (in-place)
[1] I0619 19:48:51.613749 32264 net.cpp:267] Setting up inception_3a/relu_5x5
[1] I0619 19:48:51.613781 32264 net.cpp:274] Top shape: 96 32 28 28 (2408448)
[1] I0619 19:48:51.613804 32264 net.cpp:282] Memory required for data: 2167604736
[1] I0619 19:48:51.613838 32264 layer_factory.hpp:114] Creating layer inception_3a/pool
[1] I0619 19:48:51.613883 32264 net.cpp:183] Creating Layer inception_3a/pool
[1] I0619 19:48:51.613909 32264 net.cpp:864] inception_3a/pool <- pool2/3x3_s2_pool2/3x3_s2_0_split_3
[1] I0619 19:48:51.613963 32264 net.cpp:838] inception_3a/pool -> inception_3a/pool
[1] I0619 19:48:51.614034 32264 net.cpp:267] Setting up inception_3a/pool
[1] I0619 19:48:51.614094 32264 net.cpp:274] Top shape: 96 192 28 28 (14450688)
[1] I0619 19:48:51.614123 32264 net.cpp:282] Memory required for data: 2225407488
[1] I0619 19:48:51.614147 32264 layer_factory.hpp:114] Creating layer inception_3a/pool_proj
[1] I0619 19:48:51.614233 32264 net.cpp:183] Creating Layer inception_3a/pool_proj
[1] I0619 19:48:51.614266 32264 net.cpp:864] inception_3a/pool_proj <- inception_3a/pool
[1] I0619 19:48:51.614301 32264 net.cpp:838] inception_3a/pool_proj -> inception_3a/pool_proj
[2] I0619 19:48:51.773291 32946 net.cpp:267] Setting up inception_3a/5x5
[2] I0619 19:48:51.773394 32946 net.cpp:274] Top shape: 96 32 28 28 (2408448)
[2] I0619 19:48:51.773417 32946 net.cpp:282] Memory required for data: 2157970944
[2] I0619 19:48:51.773468 32946 layer_factory.hpp:114] Creating layer inception_3a/relu_5x5
[2] I0619 19:48:51.773545 32946 net.cpp:183] Creating Layer inception_3a/relu_5x5
[2] I0619 19:48:51.773584 32946 net.cpp:864] inception_3a/relu_5x5 <- inception_3a/5x5
[2] I0619 19:48:51.773643 32946 net.cpp:825] inception_3a/relu_5x5 -> inception_3a/5x5 (in-place)
[2] I0619 19:48:51.773759 32946 net.cpp:267] Setting up inception_3a/relu_5x5
[2] I0619 19:48:51.773802 32946 net.cpp:274] Top shape: 96 32 28 28 (2408448)
[2] I0619 19:48:51.773833 32946 net.cpp:282] Memory required for data: 2167604736
[2] I0619 19:48:51.773869 32946 layer_factory.hpp:114] Creating layer inception_3a/pool
[2] I0619 19:48:51.773931 32946 net.cpp:183] Creating Layer inception_3a/pool
[2] I0619 19:48:51.773963 32946 net.cpp:864] inception_3a/pool <- pool2/3x3_s2_pool2/3x3_s2_0_split_3
[2] I0619 19:48:51.774008 32946 net.cpp:838] inception_3a/pool -> inception_3a/pool
[2] I0619 19:48:51.774091 32946 net.cpp:267] Setting up inception_3a/pool
[2] I0619 19:48:51.774128 32946 net.cpp:274] Top shape: 96 192 28 28 (14450688)
[2] I0619 19:48:51.774164 32946 net.cpp:282] Memory required for data: 2225407488
[2] I0619 19:48:51.774202 32946 layer_factory.hpp:114] Creating layer inception_3a/pool_proj
[2] I0619 19:48:51.774291 32946 net.cpp:183] Creating Layer inception_3a/pool_proj
[2] I0619 19:48:51.774322 32946 net.cpp:864] inception_3a/pool_proj <- inception_3a/pool
[2] I0619 19:48:51.774356 32946 net.cpp:838] inception_3a/pool_proj -> inception_3a/pool_proj
[0] I0619 19:48:51.782627 32180 net.cpp:267] Setting up inception_3a/pool_proj
[0] I0619 19:48:51.782728 32180 net.cpp:274] Top shape: 96 32 28 28 (2408448)
[0] I0619 19:48:51.782753 32180 net.cpp:282] Memory required for data: 2235041280
[3] I0619 19:48:51.782829 23187 net.cpp:267] Setting up inception_3a/pool_proj
[0] I0619 19:48:51.782836 32180 layer_factory.hpp:114] Creating layer inception_3a/relu_pool_proj
[3] I0619 19:48:51.782927 23187 net.cpp:274] Top shape: 96 32 28 28 (2408448)
[3] I0619 19:48:51.782950 23187 net.cpp:282] Memory required for data: 2235041280
[0] I0619 19:48:51.782932 32180 net.cpp:183] Creating Layer inception_3a/relu_pool_proj
[3] I0619 19:48:51.783025 23187 layer_factory.hpp:114] Creating layer inception_3a/relu_pool_proj
[0] I0619 19:48:51.782963 32180 net.cpp:864] inception_3a/relu_pool_proj <- inception_3a/pool_proj
[3] I0619 19:48:51.783099 23187 net.cpp:183] Creating Layer inception_3a/relu_pool_proj
[0] I0619 19:48:51.783015 32180 net.cpp:825] inception_3a/relu_pool_proj -> inception_3a/pool_proj (in-place)
[3] I0619 19:48:51.783129 23187 net.cpp:864] inception_3a/relu_pool_proj <- inception_3a/pool_proj
[0] I0619 19:48:51.783090 32180 net.cpp:267] Setting up inception_3a/relu_pool_proj
[3] I0619 19:48:51.783164 23187 net.cpp:825] inception_3a/relu_pool_proj -> inception_3a/pool_proj (in-place)
[0] I0619 19:48:51.783129 32180 net.cpp:274] Top shape: 96 32 28 28 (2408448)
[0] I0619 19:48:51.783151 32180 net.cpp:282] Memory required for data: 2244675072
[0] I0619 19:48:51.783176 32180 layer_factory.hpp:114] Creating layer inception_3a/output
[3] I0619 19:48:51.783246 23187 net.cpp:267] Setting up inception_3a/relu_pool_proj
[0] I0619 19:48:51.783270 32180 net.cpp:183] Creating Layer inception_3a/output
[3] I0619 19:48:51.783293 23187 net.cpp:274] Top shape: 96 32 28 28 (2408448)
[0] I0619 19:48:51.783301 32180 net.cpp:864] inception_3a/output <- inception_3a/1x1
[0] I0619 19:48:51.783329 32180 net.cpp:864] inception_3a/output <- inception_3a/3x3
[3] I0619 19:48:51.783323 23187 net.cpp:282] Memory required for data: 2244675072
[0] I0619 19:48:51.783355 32180 net.cpp:864] inception_3a/output <- inception_3a/5x5
[3] I0619 19:48:51.783354 23187 layer_factory.hpp:114] Creating layer inception_3a/output
[0] I0619 19:48:51.783388 32180 net.cpp:864] inception_3a/output <- inception_3a/pool_proj
[3] I0619 19:48:51.783447 23187 net.cpp:183] Creating Layer inception_3a/output
[0] I0619 19:48:51.783430 32180 net.cpp:838] inception_3a/output -> inception_3a/output
[3] I0619 19:48:51.783480 23187 net.cpp:864] inception_3a/output <- inception_3a/1x1
[3] I0619 19:48:51.783507 23187 net.cpp:864] inception_3a/output <- inception_3a/3x3
[3] I0619 19:48:51.783535 23187 net.cpp:864] inception_3a/output <- inception_3a/5x5
[3] I0619 19:48:51.783560 23187 net.cpp:864] inception_3a/output <- inception_3a/pool_proj
[3] I0619 19:48:51.783591 23187 net.cpp:838] inception_3a/output -> inception_3a/output
[3] I0619 19:48:51.783860 23187 net.cpp:267] Setting up inception_3a/output
[3] I0619 19:48:51.783911 23187 net.cpp:274] Top shape: 96 256 28 28 (19267584)
[3] I0619 19:48:51.783936 23187 net.cpp:282] Memory required for data: 2321745408
[0] I0619 19:48:51.783668 32180 net.cpp:267] Setting up inception_3a/output
[3] I0619 19:48:51.783962 23187 layer_factory.hpp:114] Creating layer inception_3a/output_inception_3a/output_0_split
[1] I0619 19:48:51.628415 32264 net.cpp:267] Setting up inception_3a/pool_proj
[0] I0619 19:48:51.783713 32180 net.cpp:274] Top shape: 96 256 28 28 (19267584)
[3] I0619 19:48:51.784018 23187 net.cpp:183] Creating Layer inception_3a/output_inception_3a/output_0_split
[1] I0619 19:48:51.628515 32264 net.cpp:274] Top shape: 96 32 28 28 (2408448)
[1] I0619 19:48:51.628537 32264 net.cpp:282] Memory required for data: 2235041280
[0] I0619 19:48:51.783746 32180 net.cpp:282] Memory required for data: 2321745408
[3] I0619 19:48:51.784132 23187 net.cpp:864] inception_3a/output_inception_3a/output_0_split <- inception_3a/output
[1] I0619 19:48:51.628613 32264 layer_factory.hpp:114] Creating layer inception_3a/relu_pool_proj
[0] I0619 19:48:51.783780 32180 layer_factory.hpp:114] Creating layer inception_3a/output_inception_3a/output_0_split
…
[0] I0619 19:48:51.783963 32180 net.cpp:864] inception_3a/output_inception_3a/output_0_split <- inception_3a/output
[1] I0619 19:48:51.628759 32264 net.cpp:825] inception_3a/relu_pool_proj -> inception_3a/pool_proj (in-place)
[0] I0619 19:48:51.784008 32180 net.cpp:838] inception_3a/output_inception_3a/output_0_split -> inception_3a/output_inception_3a/output_0_split_0
[1] I0619 19:48:51.628841 32264 net.cpp:267] Setting up inception_3a/relu_pool_proj
[0] I0619 19:48:51.784054 32180 net.cpp:838] inception_3a/output_inception_3a/output_0_split -> inception_3a/output_inception_3a/output_0_split_1
[1] I0619 19:48:51.628883 32264 net.cpp:274] Top shape: 96 32 28 28 (2408448)
[0] I0619 19:48:51.784097 32180 net.cpp:838] inception_3a/output_inception_3a/output_0_split -> inception_3a/output_inception_3a/output_0_split_2
[1] I0619 19:48:51.628906 32264 net.cpp:282] Memory required for data: 2244675072
[0] I0619 19:48:51.784142 32180 net.cpp:838] inception_3a/output_inception_3a/output_0_split -> inception_3a/output_inception_3a/output_0_split_3
[1] I0619 19:48:51.628937 32264 layer_factory.hpp:114] Creating layer inception_3a/output
[0] I0619 19:48:51.784206 32180 net.cpp:267] Setting up inception_3a/output_inception_3a/output_0_split
[3] I0619 19:48:51.784211 23187 net.cpp:838] inception_3a/output_inception_3a/output_0_split -> inception_3a/output_inception_3a/output_0_split_1
[0] I0619 19:48:51.784241 32180 net.cpp:274] Top shape: 96 256 28 28 (19267584)
[3] I0619 19:48:51.784256 23187 net.cpp:838] inception_3a/output_inception_3a/output_0_split -> inception_3a/output_inception_3a/output_0_split_2
[0] I0619 19:48:51.784271 32180 net.cpp:274] Top shape: 96 256 28 28 (19267584)
[3] I0619 19:48:51.784299 23187 net.cpp:838] inception_3a/output_inception_3a/output_0_split -> inception_3a/output_inception_3a/output_0_split_3
[0] I0619 19:48:51.784301 32180 net.cpp:274] Top shape: 96 256 28 28 (19267584)
[3] I0619 19:48:51.784374 23187 net.cpp:267] Setting up inception_3a/output_inception_3a/output_0_split
[1] I0619 19:48:51.629065 32264 net.cpp:183] Creating Layer inception_3a/output
[0] I0619 19:48:51.784337 32180 net.cpp:274] Top shape: 96 256 28 28 (19267584)
[0] I0619 19:48:51.784358 32180 net.cpp:282] Memory required for data: 2630026752
[3] I0619 19:48:51.784415 23187 net.cpp:274] Top shape: 96 256 28 28 (19267584)
[1] I0619 19:48:51.629098 32264 net.cpp:864] inception_3a/output <- inception_3a/1x1
[0] I0619 19:48:51.784385 32180 layer_factory.hpp:114] Creating layer inception_3b/1x1
[3] I0619 19:48:51.784451 23187 net.cpp:274] Top shape: 96 256 28 28 (19267584)
[1] I0619 19:48:51.629125 32264 net.cpp:864] inception_3a/output <- inception_3a/3x3
[0] I0619 19:48:51.784471 32180 net.cpp:183] Creating Layer inception_3b/1x1
[3] I0619 19:48:51.784485 23187 net.cpp:274] Top shape: 96 256 28 28 (19267584)
[1] I0619 19:48:51.629158 32264 net.cpp:864] inception_3a/output <- inception_3a/5x5
[0] I0619 19:48:51.784502 32180 net.cpp:864] inception_3b/1x1 <- inception_3a/output_inception_3a/output_0_split_0
[3] I0619 19:48:51.784519 23187 net.cpp:274] Top shape: 96 256 28 28 (19267584)
[1] I0619 19:48:51.629190 32264 net.cpp:864] inception_3a/output <- inception_3a/pool_proj
[0] I0619 19:48:51.784548 32180 net.cpp:838] inception_3b/1x1 -> inception_3b/1x1
[3] I0619 19:48:51.784546 23187 net.cpp:282] Memory required for data: 2630026752
[1] I0619 19:48:51.629225 32264 net.cpp:838] inception_3a/output -> inception_3a/output
[3] I0619 19:48:51.784574 23187 layer_factory.hpp:114] Creating layer inception_3b/1x1
[1] I0619 19:48:51.629464 32264 net.cpp:267] Setting up inception_3a/output
[3] I0619 19:48:51.784659 23187 net.cpp:183] Creating Layer inception_3b/1x1
[1] I0619 19:48:51.629513 32264 net.cpp:274] Top shape: 96 256 28 28 (19267584)
[3] I0619 19:48:51.784690 23187 net.cpp:864] inception_3b/1x1 <- inception_3a/output_inception_3a/output_0_split_0
[1] I0619 19:48:51.629542 32264 net.cpp:282] Memory required for data: 2321745408
[1] I0619 19:48:51.629570 32264 layer_factory.hpp:114] Creating layer inception_3a/output_inception_3a/output_0_split
[3] I0619 19:48:51.784759 23187 net.cpp:838] inception_3b/1x1 -> inception_3b/1x1
[1] I0619 19:48:51.629611 32264 net.cpp:183] Creating Layer inception_3a/output_inception_3a/output_0_split
[1] I0619 19:48:51.629724 32264 net.cpp:864] inception_3a/output_inception_3a/output_0_split <- inception_3a/output
[1] I0619 19:48:51.629761 32264 net.cpp:838] inception_3a/output_inception_3a/output_0_split -> inception_3a/output_inception_3a/output_0_split_0
[1] I0619 19:48:51.629803 32264 net.cpp:838] inception_3a/output_inception_3a/output_0_split -> inception_3a/output_inception_3a/output_0_split_1
[2] I0619 19:48:51.788441 32946 net.cpp:267] Setting up inception_3a/pool_proj
[1] I0619 19:48:51.629848 32264 net.cpp:838] inception_3a/output_inception_3a/output_0_split -> inception_3a/output_inception_3a/output_0_split_2
[1] I0619 19:48:51.629884 32264 net.cpp:838] inception_3a/output_inception_3a/output_0_split -> inception_3a/output_inception_3a/output_0_split_3
[2] I0619 19:48:51.788540 32946 net.cpp:274] Top shape: 96 32 28 28 (2408448)
[1] I0619 19:48:51.629956 32264 net.cpp:267] Setting up inception_3a/output_inception_3a/output_0_split
[2] I0619 19:48:51.788564 32946 net.cpp:282] Memory required for data: 2235041280
[1] I0619 19:48:51.629997 32264 net.cpp:274] Top shape: 96 256 28 28 (19267584)
[1] I0619 19:48:51.630028 32264 net.cpp:274] Top shape: 96 256 28 28 (19267584)
[2] I0619 19:48:51.788636 32946 layer_factory.hpp:114] Creating layer inception_3a/relu_pool_proj
[1] I0619 19:48:51.630079 32264 net.cpp:274] Top shape: 96 256 28 28 (19267584)
[2] I0619 19:48:51.788734 32946 net.cpp:183] Creating Layer inception_3a/relu_pool_proj
[1] I0619 19:48:51.630108 32264 net.cpp:274] Top shape: 96 256 28 28 (19267584)
[2] I0619 19:48:51.788774 32946 net.cpp:864] inception_3a/relu_pool_proj <- inception_3a/pool_proj
[1] I0619 19:48:51.630138 32264 net.cpp:282] Memory required for data: 2630026752
[2] I0619 19:48:51.788820 32946 net.cpp:825] inception_3a/relu_pool_proj -> inception_3a/pool_proj (in-place)
[1] I0619 19:48:51.630170 32264 layer_factory.hpp:114] Creating layer inception_3b/1x1
[2] I0619 19:48:51.788894 32946 net.cpp:267] Setting up inception_3a/relu_pool_proj
[1] I0619 19:48:51.630257 32264 net.cpp:183] Creating Layer inception_3b/1x1
[2] I0619 19:48:51.788940 32946 net.cpp:274] Top shape: 96 32 28 28 (2408448)
[1] I0619 19:48:51.630288 32264 net.cpp:864] inception_3b/1x1 <- inception_3a/output_inception_3a/output_0_split_0
[2] I0619 19:48:51.788969 32946 net.cpp:282] Memory required for data: 2244675072
[1] I0619 19:48:51.630332 32264 net.cpp:838] inception_3b/1x1 -> inception_3b/1x1
[2] I0619 19:48:51.788991 32946 layer_factory.hpp:114] Creating layer inception_3a/output
[2] I0619 19:48:51.789089 32946 net.cpp:183] Creating Layer inception_3a/output
[2] I0619 19:48:51.789125 32946 net.cpp:864] inception_3a/output <- inception_3a/1x1
[2] I0619 19:48:51.789153 32946 net.cpp:864] inception_3a/output <- inception_3a/3x3
[2] I0619 19:48:51.789187 32946 net.cpp:864] inception_3a/output <- inception_3a/5x5
[2] I0619 19:48:51.789230 32946 net.cpp:864] inception_3a/output <- inception_3a/pool_proj
[2] I0619 19:48:51.789268 32946 net.cpp:838] inception_3a/output -> inception_3a/output
[2] I0619 19:48:51.790357 32946 net.cpp:267] Setting up inception_3a/output
[2] I0619 19:48:51.790452 32946 net.cpp:274] Top shape: 96 256 28 28 (19267584)
[2] I0619 19:48:51.790488 32946 net.cpp:282] Memory required for data: 2321745408
[2] I0619 19:48:51.790534 32946 layer_factory.hpp:114] Creating layer inception_3a/output_inception_3a/output_0_split
[2] I0619 19:48:51.790594 32946 net.cpp:183] Creating Layer inception_3a/output_inception_3a/output_0_split
[2] I0619 19:48:51.790750 32946 net.cpp:864] inception_3a/output_inception_3a/output_0_split <- inception_3a/output
[2] I0619 19:48:51.790801 32946 net.cpp:838] inception_3a/output_inception_3a/output_0_split -> inception_3a/output_inception_3a/output_0_split_0
[2] I0619 19:48:51.790849 32946 net.cpp:838] inception_3a/output_inception_3a/output_0_split -> inception_3a/output_inception_3a/output_0_split_1
[2] I0619 19:48:51.790894 32946 net.cpp:838] inception_3a/output_inception_3a/output_0_split -> inception_3a/output_inception_3a/output_0_split_2
[2] I0619 19:48:51.790940 32946 net.cpp:838] inception_3a/output_inception_3a/output_0_split -> inception_3a/output_inception_3a/output_0_split_3
[2] I0619 19:48:51.791030 32946 net.cpp:267] Setting up inception_3a/output_inception_3a/output_0_split
[2] I0619 19:48:51.791072 32946 net.cpp:274] Top shape: 96 256 28 28 (19267584)
[2] I0619 19:48:51.791110 32946 net.cpp:274] Top shape: 96 256 28 28 (19267584)
[2] I0619 19:48:51.791147 32946 net.cpp:274] Top shape: 96 256 28 28 (19267584)
[2] I0619 19:48:51.791185 32946 net.cpp:274] Top shape: 96 256 28 28 (19267584)
[2] I0619 19:48:51.791213 32946 net.cpp:282] Memory required for data: 2630026752
[2] I0619 19:48:51.791240 32946 layer_factory.hpp:114] Creating layer inception_3b/1x1
[2] I0619 19:48:51.791327 32946 net.cpp:183] Creating Layer inception_3b/1x1
[2] I0619 19:48:51.791359 32946 net.cpp:864] inception_3b/1x1 <- inception_3a/output_inception_3a/output_0_split_0
[2] I0619 19:48:51.791396 32946 net.cpp:838] inception_3b/1x1 -> inception_3b/1x1
[0] I0619 19:48:51.800364 32180 net.cpp:267] Setting up inception_3b/1x1
[0] I0619 19:48:51.800463 32180 net.cpp:274] Top shape: 96 128 28 28 (9633792)
[0] I0619 19:48:51.800487 32180 net.cpp:282] Memory required for data: 2668561920
[0] I0619 19:48:51.800540 32180 layer_factory.hpp:114] Creating layer inception_3b/relu_1x1
[0] I0619 19:48:51.800613 32180 net.cpp:183] Creating Layer inception_3b/relu_1x1
[0] I0619 19:48:51.800649 32180 net.cpp:864] inception_3b/relu_1x1 <- inception_3b/1x1
[0] I0619 19:48:51.800684 32180 net.cpp:825] inception_3b/relu_1x1 -> inception_3b/1x1 (in-place)
[3] I0619 19:48:51.800813 23187 net.cpp:267] Setting up inception_3b/1x1
[0] I0619 19:48:51.800750 32180 net.cpp:267] Setting up inception_3b/relu_1x1
[3] I0619 19:48:51.800910 23187 net.cpp:274] Top shape: 96 128 28 28 (9633792)
[3] I0619 19:48:51.800933 23187 net.cpp:282] Memory required for data: 2668561920
[0] I0619 19:48:51.800787 32180 net.cpp:274] Top shape: 96 128 28 28 (9633792)
[3] I0619 19:48:51.800987 23187 layer_factory.hpp:114] Creating layer inception_3b/relu_1x1
[0] I0619 19:48:51.800809 32180 net.cpp:282] Memory required for data: 2707097088
[3] I0619 19:48:51.801057 23187 net.cpp:183] Creating Layer inception_3b/relu_1x1
[0] I0619 19:48:51.800832 32180 layer_factory.hpp:114] Creating layer inception_3b/3x3_reduce
[3] I0619 19:48:51.801093 23187 net.cpp:864] inception_3b/relu_1x1 <- inception_3b/1x1
[0] I0619 19:48:51.800950 32180 net.cpp:183] Creating Layer inception_3b/3x3_reduce
[3] I0619 19:48:51.801146 23187 net.cpp:825] inception_3b/relu_1x1 -> inception_3b/1x1 (in-place)
[0] I0619 19:48:51.800982 32180 net.cpp:864] inception_3b/3x3_reduce <- inception_3a/output_inception_3a/output_0_split_1
[0] I0619 19:48:51.801019 32180 net.cpp:838] inception_3b/3x3_reduce -> inception_3b/3x3_reduce
[3] I0619 19:48:51.801225 23187 net.cpp:267] Setting up inception_3b/relu_1x1
[3] I0619 19:48:51.801265 23187 net.cpp:274] Top shape: 96 128 28 28 (9633792)
[3] I0619 19:48:51.801285 23187 net.cpp:282] Memory required for data: 2707097088
[3] I0619 19:48:51.801309 23187 layer_factory.hpp:114] Creating layer inception_3b/3x3_reduce
[3] I0619 19:48:51.801389 23187 net.cpp:183] Creating Layer inception_3b/3x3_reduce
[3] I0619 19:48:51.801422 23187 net.cpp:864] inception_3b/3x3_reduce <- inception_3a/output_inception_3a/output_0_split_1
[3] I0619 19:48:51.801476 23187 net.cpp:838] inception_3b/3x3_reduce -> inception_3b/3x3_reduce
[1] I0619 19:48:51.646222 32264 net.cpp:267] Setting up inception_3b/1x1
[1] I0619 19:48:51.646320 32264 net.cpp:274] Top shape: 96 128 28 28 (9633792)
[1] I0619 19:48:51.646344 32264 net.cpp:282] Memory required for data: 2668561920
[1] I0619 19:48:51.646395 32264 layer_factory.hpp:114] Creating layer inception_3b/relu_1x1
[1] I0619 19:48:51.646466 32264 net.cpp:183] Creating Layer inception_3b/relu_1x1
[1] I0619 19:48:51.646502 32264 net.cpp:864] inception_3b/relu_1x1 <- inception_3b/1x1
[1] I0619 19:48:51.646544 32264 net.cpp:825] inception_3b/relu_1x1 -> inception_3b/1x1 (in-place)
[1] I0619 19:48:51.646620 32264 net.cpp:267] Setting up inception_3b/relu_1x1
[1] I0619 19:48:51.646657 32264 net.cpp:274] Top shape: 96 128 28 28 (9633792)
[1] I0619 19:48:51.646679 32264 net.cpp:282] Memory required for data: 2707097088
[1] I0619 19:48:51.646703 32264 layer_factory.hpp:114] Creating layer inception_3b/3x3_reduce
[1] I0619 19:48:51.646780 32264 net.cpp:183] Creating Layer inception_3b/3x3_reduce
[1] I0619 19:48:51.646811 32264 net.cpp:864] inception_3b/3x3_reduce <- inception_3a/output_inception_3a/output_0_split_1
[1] I0619 19:48:51.646855 32264 net.cpp:838] inception_3b/3x3_reduce -> inception_3b/3x3_reduce
[2] I0619 19:48:51.807765 32946 net.cpp:267] Setting up inception_3b/1x1
[2] I0619 19:48:51.807865 32946 net.cpp:274] Top shape: 96 128 28 28 (9633792)
[2] I0619 19:48:51.807889 32946 net.cpp:282] Memory required for data: 2668561920
[2] I0619 19:48:51.807940 32946 layer_factory.hpp:114] Creating layer inception_3b/relu_1x1
[2] I0619 19:48:51.808018 32946 net.cpp:183] Creating Layer inception_3b/relu_1x1
[2] I0619 19:48:51.808058 32946 net.cpp:864] inception_3b/relu_1x1 <- inception_3b/1x1
[2] I0619 19:48:51.808112 32946 net.cpp:825] inception_3b/relu_1x1 -> inception_3b/1x1 (in-place)
[2] I0619 19:48:51.808197 32946 net.cpp:267] Setting up inception_3b/relu_1x1
[2] I0619 19:48:51.808235 32946 net.cpp:274] Top shape: 96 128 28 28 (9633792)
[2] I0619 19:48:51.808262 32946 net.cpp:282] Memory required for data: 2707097088
[2] I0619 19:48:51.808287 32946 layer_factory.hpp:114] Creating layer inception_3b/3x3_reduce
[2] I0619 19:48:51.808369 32946 net.cpp:183] Creating Layer inception_3b/3x3_reduce
[2] I0619 19:48:51.808401 32946 net.cpp:864] inception_3b/3x3_reduce <- inception_3a/output_inception_3a/output_0_split_1
[2] I0619 19:48:51.808459 32946 net.cpp:838] inception_3b/3x3_reduce -> inception_3b/3x3_reduce
[0] I0619 19:48:51.816929 32180 net.cpp:267] Setting up inception_3b/3x3_reduce
[0] I0619 19:48:51.817028 32180 net.cpp:274] Top shape: 96 128 28 28 (9633792)
[0] I0619 19:48:51.817051 32180 net.cpp:282] Memory required for data: 2745632256
[0] I0619 19:48:51.817104 32180 layer_factory.hpp:114] Creating layer inception_3b/relu_3x3_reduce
[0] I0619 19:48:51.817183 32180 net.cpp:183] Creating Layer inception_3b/relu_3x3_reduce
[0] I0619 19:48:51.817222 32180 net.cpp:864] inception_3b/relu_3x3_reduce <- inception_3b/3x3_reduce
[0] I0619 19:48:51.817257 32180 net.cpp:825] inception_3b/relu_3x3_reduce -> inception_3b/3x3_reduce (in-place)
[0] I0619 19:48:51.817333 32180 net.cpp:267] Setting up inception_3b/relu_3x3_reduce
[0] I0619 19:48:51.817371 32180 net.cpp:274] Top shape: 96 128 28 28 (9633792)
[0] I0619 19:48:51.817394 32180 net.cpp:282] Memory required for data: 2784167424
[3] I0619 19:48:51.817441 23187 net.cpp:267] Setting up inception_3b/3x3_reduce
[0] I0619 19:48:51.817417 32180 layer_factory.hpp:114] Creating layer inception_3b/3x3
[3] I0619 19:48:51.817544 23187 net.cpp:274] Top shape: 96 128 28 28 (9633792)
[3] I0619 19:48:51.817567 23187 net.cpp:282] Memory required for data: 2745632256
[3] I0619 19:48:51.817618 23187 layer_factory.hpp:114] Creating layer inception_3b/relu_3x3_reduce
[0] I0619 19:48:51.817512 32180 net.cpp:183] Creating Layer inception_3b/3x3
[3] I0619 19:48:51.817677 23187 net.cpp:183] Creating Layer inception_3b/relu_3x3_reduce
[0] I0619 19:48:51.817551 32180 net.cpp:864] inception_3b/3x3 <- inception_3b/3x3_reduce
[3] I0619 19:48:51.817739 23187 net.cpp:864] inception_3b/relu_3x3_reduce <- inception_3b/3x3_reduce
[0] I0619 19:48:51.817595 32180 net.cpp:838] inception_3b/3x3 -> inception_3b/3x3
[3] I0619 19:48:51.817790 23187 net.cpp:825] inception_3b/relu_3x3_reduce -> inception_3b/3x3_reduce (in-place)
[3] I0619 19:48:51.817875 23187 net.cpp:267] Setting up inception_3b/relu_3x3_reduce
[3] I0619 19:48:51.817919 23187 net.cpp:274] Top shape: 96 128 28 28 (9633792)
[3] I0619 19:48:51.817941 23187 net.cpp:282] Memory required for data: 2784167424
[3] I0619 19:48:51.817965 23187 layer_factory.hpp:114] Creating layer inception_3b/3x3
[3] I0619 19:48:51.818051 23187 net.cpp:183] Creating Layer inception_3b/3x3
[3] I0619 19:48:51.818084 23187 net.cpp:864] inception_3b/3x3 <- inception_3b/3x3_reduce
[3] I0619 19:48:51.818128 23187 net.cpp:838] inception_3b/3x3 -> inception_3b/3x3
[1] I0619 19:48:51.664005 32264 net.cpp:267] Setting up inception_3b/3x3_reduce
[1] I0619 19:48:51.664139 32264 net.cpp:274] Top shape: 96 128 28 28 (9633792)
[1] I0619 19:48:51.664165 32264 net.cpp:282] Memory required for data: 2745632256
[1] I0619 19:48:51.664216 32264 layer_factory.hpp:114] Creating layer inception_3b/relu_3x3_reduce
[1] I0619 19:48:51.664286 32264 net.cpp:183] Creating Layer inception_3b/relu_3x3_reduce
[1] I0619 19:48:51.664320 32264 net.cpp:864] inception_3b/relu_3x3_reduce <- inception_3b/3x3_reduce
[1] I0619 19:48:51.664369 32264 net.cpp:825] inception_3b/relu_3x3_reduce -> inception_3b/3x3_reduce (in-place)
[1] I0619 19:48:51.664465 32264 net.cpp:267] Setting up inception_3b/relu_3x3_reduce
[1] I0619 19:48:51.664508 32264 net.cpp:274] Top shape: 96 128 28 28 (9633792)
[1] I0619 19:48:51.664530 32264 net.cpp:282] Memory required for data: 2784167424
[1] I0619 19:48:51.664561 32264 layer_factory.hpp:114] Creating layer inception_3b/3x3
[1] I0619 19:48:51.664645 32264 net.cpp:183] Creating Layer inception_3b/3x3
[1] I0619 19:48:51.664675 32264 net.cpp:864] inception_3b/3x3 <- inception_3b/3x3_reduce
[1] I0619 19:48:51.664719 32264 net.cpp:838] inception_3b/3x3 -> inception_3b/3x3
[2] I0619 19:48:51.825649 32946 net.cpp:267] Setting up inception_3b/3x3_reduce
[2] I0619 19:48:51.825789 32946 net.cpp:274] Top shape: 96 128 28 28 (9633792)
[2] I0619 19:48:51.825814 32946 net.cpp:282] Memory required for data: 2745632256
[2] I0619 19:48:51.825865 32946 layer_factory.hpp:114] Creating layer inception_3b/relu_3x3_reduce
[2] I0619 19:48:51.825932 32946 net.cpp:183] Creating Layer inception_3b/relu_3x3_reduce
[2] I0619 19:48:51.825970 32946 net.cpp:864] inception_3b/relu_3x3_reduce <- inception_3b/3x3_reduce
[2] I0619 19:48:51.826030 32946 net.cpp:825] inception_3b/relu_3x3_reduce -> inception_3b/3x3_reduce (in-place)
[2] I0619 19:48:51.826115 32946 net.cpp:267] Setting up inception_3b/relu_3x3_reduce
[2] I0619 19:48:51.826153 32946 net.cpp:274] Top shape: 96 128 28 28 (9633792)
[2] I0619 19:48:51.826182 32946 net.cpp:282] Memory required for data: 2784167424
[2] I0619 19:48:51.826216 32946 layer_factory.hpp:114] Creating layer inception_3b/3x3
[2] I0619 19:48:51.826313 32946 net.cpp:183] Creating Layer inception_3b/3x3
[2] I0619 19:48:51.826347 32946 net.cpp:864] inception_3b/3x3 <- inception_3b/3x3_reduce
[2] I0619 19:48:51.826393 32946 net.cpp:838] inception_3b/3x3 -> inception_3b/3x3
[0] I0619 19:48:51.843238 32180 net.cpp:267] Setting up inception_3b/3x3
[0] I0619 19:48:51.843338 32180 net.cpp:274] Top shape: 96 192 28 28 (14450688)
[0] I0619 19:48:51.843363 32180 net.cpp:282] Memory required for data: 2841970176
[0] I0619 19:48:51.843508 32180 layer_factory.hpp:114] Creating layer inception_3b/relu_3x3
[0] I0619 19:48:51.843578 32180 net.cpp:183] Creating Layer inception_3b/relu_3x3
[0] I0619 19:48:51.843616 32180 net.cpp:864] inception_3b/relu_3x3 <- inception_3b/3x3
[0] I0619 19:48:51.843652 32180 net.cpp:825] inception_3b/relu_3x3 -> inception_3b/3x3 (in-place)
[0] I0619 19:48:51.843734 32180 net.cpp:267] Setting up inception_3b/relu_3x3
[0] I0619 19:48:51.843775 32180 net.cpp:274] Top shape: 96 192 28 28 (14450688)
[0] I0619 19:48:51.843796 32180 net.cpp:282] Memory required for data: 2899772928
[0] I0619 19:48:51.843821 32180 layer_factory.hpp:114] Creating layer inception_3b/5x5_reduce
[0] I0619 19:48:51.843936 32180 net.cpp:183] Creating Layer inception_3b/5x5_reduce
[0] I0619 19:48:51.843971 32180 net.cpp:864] inception_3b/5x5_reduce <- inception_3a/output_inception_3a/output_0_split_2
[0] I0619 19:48:51.844008 32180 net.cpp:838] inception_3b/5x5_reduce -> inception_3b/5x5_reduce
[3] I0619 19:48:51.843950 23187 net.cpp:267] Setting up inception_3b/3x3
[3] I0619 19:48:51.844055 23187 net.cpp:274] Top shape: 96 192 28 28 (14450688)
[3] I0619 19:48:51.844079 23187 net.cpp:282] Memory required for data: 2841970176
[3] I0619 19:48:51.844219 23187 layer_factory.hpp:114] Creating layer inception_3b/relu_3x3
[3] I0619 19:48:51.844281 23187 net.cpp:183] Creating Layer inception_3b/relu_3x3
[3] I0619 19:48:51.844316 23187 net.cpp:864] inception_3b/relu_3x3 <- inception_3b/3x3
[3] I0619 19:48:51.844362 23187 net.cpp:825] inception_3b/relu_3x3 -> inception_3b/3x3 (in-place)
[3] I0619 19:48:51.844439 23187 net.cpp:267] Setting up inception_3b/relu_3x3
[3] I0619 19:48:51.844476 23187 net.cpp:274] Top shape: 96 192 28 28 (14450688)
[3] I0619 19:48:51.844498 23187 net.cpp:282] Memory required for data: 2899772928
[3] I0619 19:48:51.844522 23187 layer_factory.hpp:114] Creating layer inception_3b/5x5_reduce
[3] I0619 19:48:51.844597 23187 net.cpp:183] Creating Layer inception_3b/5x5_reduce
[3] I0619 19:48:51.844630 23187 net.cpp:864] inception_3b/5x5_reduce <- inception_3a/output_inception_3a/output_0_split_2
[3] I0619 19:48:51.844681 23187 net.cpp:838] inception_3b/5x5_reduce -> inception_3b/5x5_reduce
[1] I0619 19:48:51.690631 32264 net.cpp:267] Setting up inception_3b/3x3
[1] I0619 19:48:51.690732 32264 net.cpp:274] Top shape: 96 192 28 28 (14450688)
[1] I0619 19:48:51.690754 32264 net.cpp:282] Memory required for data: 2841970176
[1] I0619 19:48:51.690899 32264 layer_factory.hpp:114] Creating layer inception_3b/relu_3x3
[1] I0619 19:48:51.690971 32264 net.cpp:183] Creating Layer inception_3b/relu_3x3
[1] I0619 19:48:51.691009 32264 net.cpp:864] inception_3b/relu_3x3 <- inception_3b/3x3
[1] I0619 19:48:51.691074 32264 net.cpp:825] inception_3b/relu_3x3 -> inception_3b/3x3 (in-place)
[1] I0619 19:48:51.691159 32264 net.cpp:267] Setting up inception_3b/relu_3x3
[1] I0619 19:48:51.691198 32264 net.cpp:274] Top shape: 96 192 28 28 (14450688)
[1] I0619 19:48:51.691221 32264 net.cpp:282] Memory required for data: 2899772928
[1] I0619 19:48:51.691246 32264 layer_factory.hpp:114] Creating layer inception_3b/5x5_reduce
[1] I0619 19:48:51.691328 32264 net.cpp:183] Creating Layer inception_3b/5x5_reduce
[1] I0619 19:48:51.691359 32264 net.cpp:864] inception_3b/5x5_reduce <- inception_3a/output_inception_3a/output_0_split_2
[1] I0619 19:48:51.691408 32264 net.cpp:838] inception_3b/5x5_reduce -> inception_3b/5x5_reduce
[2] I0619 19:48:51.852737 32946 net.cpp:267] Setting up inception_3b/3x3
[2] I0619 19:48:51.852843 32946 net.cpp:274] Top shape: 96 192 28 28 (14450688)
[2] I0619 19:48:51.852866 32946 net.cpp:282] Memory required for data: 2841970176
[2] I0619 19:48:51.853013 32946 layer_factory.hpp:114] Creating layer inception_3b/relu_3x3
[2] I0619 19:48:51.853082 32946 net.cpp:183] Creating Layer inception_3b/relu_3x3
[2] I0619 19:48:51.853123 32946 net.cpp:864] inception_3b/relu_3x3 <- inception_3b/3x3
[2] I0619 19:48:51.853183 32946 net.cpp:825] inception_3b/relu_3x3 -> inception_3b/3x3 (in-place)
[2] I0619 19:48:51.853262 32946 net.cpp:267] Setting up inception_3b/relu_3x3
[2] I0619 19:48:51.853301 32946 net.cpp:274] Top shape: 96 192 28 28 (14450688)
[2] I0619 19:48:51.853322 32946 net.cpp:282] Memory required for data: 2899772928
[2] I0619 19:48:51.853354 32946 layer_factory.hpp:114] Creating layer inception_3b/5x5_reduce
[2] I0619 19:48:51.853440 32946 net.cpp:183] Creating Layer inception_3b/5x5_reduce
[2] I0619 19:48:51.853469 32946 net.cpp:864] inception_3b/5x5_reduce <- inception_3a/output_inception_3a/output_0_split_2
[2] I0619 19:48:51.853513 32946 net.cpp:838] inception_3b/5x5_reduce -> inception_3b/5x5_reduce
[0] I0619 19:48:51.858291 32180 net.cpp:267] Setting up inception_3b/5x5_reduce
[0] I0619 19:48:51.858387 32180 net.cpp:274] Top shape: 96 32 28 28 (2408448)
[0] I0619 19:48:51.858412 32180 net.cpp:282] Memory required for data: 2909406720
[0] I0619 19:48:51.858463 32180 layer_factory.hpp:114] Creating layer inception_3b/relu_5x5_reduce
[0] I0619 19:48:51.858536 32180 net.cpp:183] Creating Layer inception_3b/relu_5x5_reduce
[0] I0619 19:48:51.858572 32180 net.cpp:864] inception_3b/relu_5x5_reduce <- inception_3b/5x5_reduce
[0] I0619 19:48:51.858606 32180 net.cpp:825] inception_3b/relu_5x5_reduce -> inception_3b/5x5_reduce (in-place)
[0] I0619 19:48:51.858675 32180 net.cpp:267] Setting up inception_3b/relu_5x5_reduce
[0] I0619 19:48:51.858722 32180 net.cpp:274] Top shape: 96 32 28 28 (2408448)
[0] I0619 19:48:51.858743 32180 net.cpp:282] Memory required for data: 2919040512
[0] I0619 19:48:51.858773 32180 layer_factory.hpp:114] Creating layer inception_3b/5x5
[0] I0619 19:48:51.858852 32180 net.cpp:183] Creating Layer inception_3b/5x5
[0] I0619 19:48:51.858877 32180 net.cpp:864] inception_3b/5x5 <- inception_3b/5x5_reduce
[3] I0619 19:48:51.858959 23187 net.cpp:267] Setting up inception_3b/5x5_reduce
[0] I0619 19:48:51.858945 32180 net.cpp:838] inception_3b/5x5 -> inception_3b/5x5
[3] I0619 19:48:51.859056 23187 net.cpp:274] Top shape: 96 32 28 28 (2408448)
[3] I0619 19:48:51.859079 23187 net.cpp:282] Memory required for data: 2909406720
[3] I0619 19:48:51.859133 23187 layer_factory.hpp:114] Creating layer inception_3b/relu_5x5_reduce
[3] I0619 19:48:51.859203 23187 net.cpp:183] Creating Layer inception_3b/relu_5x5_reduce
[3] I0619 19:48:51.859241 23187 net.cpp:864] inception_3b/relu_5x5_reduce <- inception_3b/5x5_reduce
[3] I0619 19:48:51.859277 23187 net.cpp:825] inception_3b/relu_5x5_reduce -> inception_3b/5x5_reduce (in-place)
[3] I0619 19:48:51.859357 23187 net.cpp:267] Setting up inception_3b/relu_5x5_reduce
[3] I0619 19:48:51.859395 23187 net.cpp:274] Top shape: 96 32 28 28 (2408448)
[3] I0619 19:48:51.859417 23187 net.cpp:282] Memory required for data: 2919040512
[3] I0619 19:48:51.859441 23187 layer_factory.hpp:114] Creating layer inception_3b/5x5
[3] I0619 19:48:51.859524 23187 net.cpp:183] Creating Layer inception_3b/5x5
[3] I0619 19:48:51.859553 23187 net.cpp:864] inception_3b/5x5 <- inception_3b/5x5_reduce
[3] I0619 19:48:51.859591 23187 net.cpp:838] inception_3b/5x5 -> inception_3b/5x5
[1] I0619 19:48:51.705905 32264 net.cpp:267] Setting up inception_3b/5x5_reduce
[1] I0619 19:48:51.706008 32264 net.cpp:274] Top shape: 96 32 28 28 (2408448)
[1] I0619 19:48:51.706032 32264 net.cpp:282] Memory required for data: 2909406720
[1] I0619 19:48:51.706112 32264 layer_factory.hpp:114] Creating layer inception_3b/relu_5x5_reduce
[1] I0619 19:48:51.706182 32264 net.cpp:183] Creating Layer inception_3b/relu_5x5_reduce
[1] I0619 19:48:51.706225 32264 net.cpp:864] inception_3b/relu_5x5_reduce <- inception_3b/5x5_reduce
[1] I0619 19:48:51.706261 32264 net.cpp:825] inception_3b/relu_5x5_reduce -> inception_3b/5x5_reduce (in-place)
[1] I0619 19:48:51.706326 32264 net.cpp:267] Setting up inception_3b/relu_5x5_reduce
[1] I0619 19:48:51.706364 32264 net.cpp:274] Top shape: 96 32 28 28 (2408448)
[1] I0619 19:48:51.706387 32264 net.cpp:282] Memory required for data: 2919040512
[1] I0619 19:48:51.706410 32264 layer_factory.hpp:114] Creating layer inception_3b/5x5
[1] I0619 19:48:51.706493 32264 net.cpp:183] Creating Layer inception_3b/5x5
[1] I0619 19:48:51.706523 32264 net.cpp:864] inception_3b/5x5 <- inception_3b/5x5_reduce
[1] I0619 19:48:51.706560 32264 net.cpp:838] inception_3b/5x5 -> inception_3b/5x5
[2] I0619 19:48:51.867938 32946 net.cpp:267] Setting up inception_3b/5x5_reduce
[2] I0619 19:48:51.868037 32946 net.cpp:274] Top shape: 96 32 28 28 (2408448)
[2] I0619 19:48:51.868062 32946 net.cpp:282] Memory required for data: 2909406720
[2] I0619 19:48:51.868113 32946 layer_factory.hpp:114] Creating layer inception_3b/relu_5x5_reduce
[2] I0619 19:48:51.868191 32946 net.cpp:183] Creating Layer inception_3b/relu_5x5_reduce
[2] I0619 19:48:51.868232 32946 net.cpp:864] inception_3b/relu_5x5_reduce <- inception_3b/5x5_reduce
[2] I0619 19:48:51.868278 32946 net.cpp:825] inception_3b/relu_5x5_reduce -> inception_3b/5x5_reduce (in-place)
[2] I0619 19:48:51.868357 32946 net.cpp:267] Setting up inception_3b/relu_5x5_reduce
[2] I0619 19:48:51.868396 32946 net.cpp:274] Top shape: 96 32 28 28 (2408448)
[2] I0619 19:48:51.868424 32946 net.cpp:282] Memory required for data: 2919040512
[2] I0619 19:48:51.868448 32946 layer_factory.hpp:114] Creating layer inception_3b/5x5
[2] I0619 19:48:51.868535 32946 net.cpp:183] Creating Layer inception_3b/5x5
[2] I0619 19:48:51.868564 32946 net.cpp:864] inception_3b/5x5 <- inception_3b/5x5_reduce
[2] I0619 19:48:51.868600 32946 net.cpp:838] inception_3b/5x5 -> inception_3b/5x5
[0] I0619 19:48:51.882406 32180 net.cpp:267] Setting up inception_3b/5x5
[0] I0619 19:48:51.882509 32180 net.cpp:274] Top shape: 96 96 28 28 (7225344)
[0] I0619 19:48:51.882534 32180 net.cpp:282] Memory required for data: 2947941888
[0] I0619 19:48:51.882587 32180 layer_factory.hpp:114] Creating layer inception_3b/relu_5x5
[0] I0619 19:48:51.882658 32180 net.cpp:183] Creating Layer inception_3b/relu_5x5
[0] I0619 19:48:51.882694 32180 net.cpp:864] inception_3b/relu_5x5 <- inception_3b/5x5
[0] I0619 19:48:51.882730 32180 net.cpp:825] inception_3b/relu_5x5 -> inception_3b/5x5 (in-place)
[0] I0619 19:48:51.882798 32180 net.cpp:267] Setting up inception_3b/relu_5x5
[0] I0619 19:48:51.882838 32180 net.cpp:274] Top shape: 96 96 28 28 (7225344)
[0] I0619 19:48:51.882858 32180 net.cpp:282] Memory required for data: 2976843264
[0] I0619 19:48:51.882882 32180 layer_factory.hpp:114] Creating layer inception_3b/pool
[0] I0619 19:48:51.882967 32180 net.cpp:183] Creating Layer inception_3b/pool
[0] I0619 19:48:51.882994 32180 net.cpp:864] inception_3b/pool <- inception_3a/output_inception_3a/output_0_split_3
[0] I0619 19:48:51.883028 32180 net.cpp:838] inception_3b/pool -> inception_3b/pool
[0] I0619 19:48:51.883110 32180 net.cpp:267] Setting up inception_3b/pool
[0] I0619 19:48:51.883150 32180 net.cpp:274] Top shape: 96 256 28 28 (19267584)
[0] I0619 19:48:51.883172 32180 net.cpp:282] Memory required for data: 3053913600
[0] I0619 19:48:51.883196 32180 layer_factory.hpp:114] Creating layer inception_3b/pool_proj
[0] I0619 19:48:51.883270 32180 net.cpp:183] Creating Layer inception_3b/pool_proj
[0] I0619 19:48:51.883299 32180 net.cpp:864] inception_3b/pool_proj <- inception_3b/pool
[0] I0619 19:48:51.883342 32180 net.cpp:838] inception_3b/pool_proj -> inception_3b/pool_proj
[3] I0619 19:48:51.883541 23187 net.cpp:267] Setting up inception_3b/5x5
[3] I0619 19:48:51.883646 23187 net.cpp:274] Top shape: 96 96 28 28 (7225344)
[3] I0619 19:48:51.883668 23187 net.cpp:282] Memory required for data: 2947941888
[3] I0619 19:48:51.883746 23187 layer_factory.hpp:114] Creating layer inception_3b/relu_5x5
[3] I0619 19:48:51.883821 23187 net.cpp:183] Creating Layer inception_3b/relu_5x5
[3] I0619 19:48:51.883859 23187 net.cpp:864] inception_3b/relu_5x5 <- inception_3b/5x5
[3] I0619 19:48:51.883903 23187 net.cpp:825] inception_3b/relu_5x5 -> inception_3b/5x5 (in-place)
[3] I0619 19:48:51.883985 23187 net.cpp:267] Setting up inception_3b/relu_5x5
[3] I0619 19:48:51.884026 23187 net.cpp:274] Top shape: 96 96 28 28 (7225344)
[3] I0619 19:48:51.884047 23187 net.cpp:282] Memory required for data: 2976843264
[3] I0619 19:48:51.884071 23187 layer_factory.hpp:114] Creating layer inception_3b/pool
[3] I0619 19:48:51.884130 23187 net.cpp:183] Creating Layer inception_3b/pool
[3] I0619 19:48:51.884162 23187 net.cpp:864] inception_3b/pool <- inception_3a/output_inception_3a/output_0_split_3
[3] I0619 19:48:51.884196 23187 net.cpp:838] inception_3b/pool -> inception_3b/pool
[3] I0619 19:48:51.884266 23187 net.cpp:267] Setting up inception_3b/pool
[3] I0619 19:48:51.884313 23187 net.cpp:274] Top shape: 96 256 28 28 (19267584)
[3] I0619 19:48:51.884335 23187 net.cpp:282] Memory required for data: 3053913600
[3] I0619 19:48:51.884359 23187 layer_factory.hpp:114] Creating layer inception_3b/pool_proj
[3] I0619 19:48:51.884445 23187 net.cpp:183] Creating Layer inception_3b/pool_proj
[3] I0619 19:48:51.884476 23187 net.cpp:864] inception_3b/pool_proj <- inception_3b/pool
[3] I0619 19:48:51.884519 23187 net.cpp:838] inception_3b/pool_proj -> inception_3b/pool_proj
[1] I0619 19:48:51.729125 32264 net.cpp:267] Setting up inception_3b/5x5
[1] I0619 19:48:51.729223 32264 net.cpp:274] Top shape: 96 96 28 28 (7225344)
[1] I0619 19:48:51.729246 32264 net.cpp:282] Memory required for data: 2947941888
[1] I0619 19:48:51.729298 32264 layer_factory.hpp:114] Creating layer inception_3b/relu_5x5
[1] I0619 19:48:51.729368 32264 net.cpp:183] Creating Layer inception_3b/relu_5x5
[1] I0619 19:48:51.729405 32264 net.cpp:864] inception_3b/relu_5x5 <- inception_3b/5x5
[1] I0619 19:48:51.729447 32264 net.cpp:825] inception_3b/relu_5x5 -> inception_3b/5x5 (in-place)
[1] I0619 19:48:51.729527 32264 net.cpp:267] Setting up inception_3b/relu_5x5
[1] I0619 19:48:51.729560 32264 net.cpp:274] Top shape: 96 96 28 28 (7225344)
[1] I0619 19:48:51.729581 32264 net.cpp:282] Memory required for data: 2976843264
[1] I0619 19:48:51.729611 32264 layer_factory.hpp:114] Creating layer inception_3b/pool
[1] I0619 19:48:51.729666 32264 net.cpp:183] Creating Layer inception_3b/pool
[1] I0619 19:48:51.729691 32264 net.cpp:864] inception_3b/pool <- inception_3a/output_inception_3a/output_0_split_3
[1] I0619 19:48:51.729723 32264 net.cpp:838] inception_3b/pool -> inception_3b/pool
[1] I0619 19:48:51.729804 32264 net.cpp:267] Setting up inception_3b/pool
[1] I0619 19:48:51.729841 32264 net.cpp:274] Top shape: 96 256 28 28 (19267584)
[1] I0619 19:48:51.729863 32264 net.cpp:282] Memory required for data: 3053913600
[1] I0619 19:48:51.729887 32264 layer_factory.hpp:114] Creating layer inception_3b/pool_proj
[1] I0619 19:48:51.729970 32264 net.cpp:183] Creating Layer inception_3b/pool_proj
[1] I0619 19:48:51.730000 32264 net.cpp:864] inception_3b/pool_proj <- inception_3b/pool
[1] I0619 19:48:51.730060 32264 net.cpp:838] inception_3b/pool_proj -> inception_3b/pool_proj
[2] I0619 19:48:51.893215 32946 net.cpp:267] Setting up inception_3b/5x5
[2] I0619 19:48:51.893321 32946 net.cpp:274] Top shape: 96 96 28 28 (7225344)
[2] I0619 19:48:51.893343 32946 net.cpp:282] Memory required for data: 2947941888
[2] I0619 19:48:51.893396 32946 layer_factory.hpp:114] Creating layer inception_3b/relu_5x5
[2] I0619 19:48:51.893476 32946 net.cpp:183] Creating Layer inception_3b/relu_5x5
[2] I0619 19:48:51.893520 32946 net.cpp:864] inception_3b/relu_5x5 <- inception_3b/5x5
[2] I0619 19:48:51.893568 32946 net.cpp:825] inception_3b/relu_5x5 -> inception_3b/5x5 (in-place)
[2] I0619 19:48:51.893647 32946 net.cpp:267] Setting up inception_3b/relu_5x5
[2] I0619 19:48:51.893713 32946 net.cpp:274] Top shape: 96 96 28 28 (7225344)
[2] I0619 19:48:51.893754 32946 net.cpp:282] Memory required for data: 2976843264
[2] I0619 19:48:51.893787 32946 layer_factory.hpp:114] Creating layer inception_3b/pool
[2] I0619 19:48:51.893853 32946 net.cpp:183] Creating Layer inception_3b/pool
[2] I0619 19:48:51.893884 32946 net.cpp:864] inception_3b/pool <- inception_3a/output_inception_3a/output_0_split_3
[2] I0619 19:48:51.893918 32946 net.cpp:838] inception_3b/pool -> inception_3b/pool
[2] I0619 19:48:51.893995 32946 net.cpp:267] Setting up inception_3b/pool
[2] I0619 19:48:51.894042 32946 net.cpp:274] Top shape: 96 256 28 28 (19267584)
[2] I0619 19:48:51.894071 32946 net.cpp:282] Memory required for data: 3053913600
[2] I0619 19:48:51.894095 32946 layer_factory.hpp:114] Creating layer inception_3b/pool_proj
[2] I0619 19:48:51.894176 32946 net.cpp:183] Creating Layer inception_3b/pool_proj
[2] I0619 19:48:51.894206 32946 net.cpp:864] inception_3b/pool_proj <- inception_3b/pool
[2] I0619 19:48:51.894256 32946 net.cpp:838] inception_3b/pool_proj -> inception_3b/pool_proj
[0] I0619 19:48:51.898325 32180 net.cpp:267] Setting up inception_3b/pool_proj
[0] I0619 19:48:51.898424 32180 net.cpp:274] Top shape: 96 64 28 28 (4816896)
[0] I0619 19:48:51.898448 32180 net.cpp:282] Memory required for data: 3073181184
[0] I0619 19:48:51.898500 32180 layer_factory.hpp:114] Creating layer inception_3b/relu_pool_proj
[0] I0619 19:48:51.898661 32180 net.cpp:183] Creating Layer inception_3b/relu_pool_proj
[0] I0619 19:48:51.898700 32180 net.cpp:864] inception_3b/relu_pool_proj <- inception_3b/pool_proj
[0] I0619 19:48:51.898736 32180 net.cpp:825] inception_3b/relu_pool_proj -> inception_3b/pool_proj (in-place)
[0] I0619 19:48:51.898807 32180 net.cpp:267] Setting up inception_3b/relu_pool_proj
[0] I0619 19:48:51.898845 32180 net.cpp:274] Top shape: 96 64 28 28 (4816896)
[0] I0619 19:48:51.898867 32180 net.cpp:282] Memory required for data: 3092448768
[0] I0619 19:48:51.898918 32180 layer_factory.hpp:114] Creating layer inception_3b/output
[0] I0619 19:48:51.898973 32180 net.cpp:183] Creating Layer inception_3b/output
[0] I0619 19:48:51.899009 32180 net.cpp:864] inception_3b/output <- inception_3b/1x1
[0] I0619 19:48:51.899039 32180 net.cpp:864] inception_3b/output <- inception_3b/3x3
[0] I0619 19:48:51.899065 32180 net.cpp:864] inception_3b/output <- inception_3b/5x5
[0] I0619 19:48:51.899091 32180 net.cpp:864] inception_3b/output <- inception_3b/pool_proj
[0] I0619 19:48:51.899129 32180 net.cpp:838] inception_3b/output -> inception_3b/output
[0] I0619 19:48:51.899248 32180 net.cpp:267] Setting up inception_3b/output
[0] I0619 19:48:51.899287 32180 net.cpp:274] Top shape: 96 480 28 28 (36126720)
[0] I0619 19:48:51.899317 32180 net.cpp:282] Memory required for data: 3236955648
[0] I0619 19:48:51.899349 32180 layer_factory.hpp:114] Creating layer pool3/3x3_s2
[0] I0619 19:48:51.899402 32180 net.cpp:183] Creating Layer pool3/3x3_s2
[0] I0619 19:48:51.899431 32180 net.cpp:864] pool3/3x3_s2 <- inception_3b/output
[3] I0619 19:48:51.899945 23187 net.cpp:267] Setting up inception_3b/pool_proj
[0] I0619 19:48:51.899474 32180 net.cpp:838] pool3/3x3_s2 -> pool3/3x3_s2
[3] I0619 19:48:51.900043 23187 net.cpp:274] Top shape: 96 64 28 28 (4816896)
[3] I0619 19:48:51.900065 23187 net.cpp:282] Memory required for data: 3073181184
[0] I0619 19:48:51.899549 32180 net.cpp:267] Setting up pool3/3x3_s2
[3] I0619 19:48:51.900118 23187 layer_factory.hpp:114] Creating layer inception_3b/relu_pool_proj
[0] I0619 19:48:51.899586 32180 net.cpp:274] Top shape: 96 480 14 14 (9031680)
[3] I0619 19:48:51.900287 23187 net.cpp:183] Creating Layer inception_3b/relu_pool_proj
[0] I0619 19:48:51.899608 32180 net.cpp:282] Memory required for data: 3273082368
[3] I0619 19:48:51.900328 23187 net.cpp:864] inception_3b/relu_pool_proj <- inception_3b/pool_proj
[0] I0619 19:48:51.899631 32180 layer_factory.hpp:114] Creating layer pool3/3x3_s2_pool3/3x3_s2_0_split
[3] I0619 19:48:51.900374 23187 net.cpp:825] inception_3b/relu_pool_proj -> inception_3b/pool_proj (in-place)
[0] I0619 19:48:51.899669 32180 net.cpp:183] Creating Layer pool3/3x3_s2_pool3/3x3_s2_0_split
[3] I0619 19:48:51.900452 23187 net.cpp:267] Setting up inception_3b/relu_pool_proj
[0] I0619 19:48:51.899698 32180 net.cpp:864] pool3/3x3_s2_pool3/3x3_s2_0_split <- pool3/3x3_s2
[0] I0619 19:48:51.899736 32180 net.cpp:838] pool3/3x3_s2_pool3/3x3_s2_0_split -> pool3/3x3_s2_pool3/3x3_s2_0_split_0
[3] I0619 19:48:51.900485 23187 net.cpp:274] Top shape: 96 64 28 28 (4816896)
[0] I0619 19:48:51.899773 32180 net.cpp:838] pool3/3x3_s2_pool3/3x3_s2_0_split -> pool3/3x3_s2_pool3/3x3_s2_0_split_1
[3] I0619 19:48:51.900506 23187 net.cpp:282] Memory required for data: 3092448768
[0] I0619 19:48:51.899814 32180 net.cpp:838] pool3/3x3_s2_pool3/3x3_s2_0_split -> pool3/3x3_s2_pool3/3x3_s2_0_split_2
[3] I0619 19:48:51.900537 23187 layer_factory.hpp:114] Creating layer inception_3b/output
[3] I0619 19:48:51.900578 23187 net.cpp:183] Creating Layer inception_3b/output
[0] I0619 19:48:51.899854 32180 net.cpp:838] pool3/3x3_s2_pool3/3x3_s2_0_split -> pool3/3x3_s2_pool3/3x3_s2_0_split_3
[3] I0619 19:48:51.900604 23187 net.cpp:864] inception_3b/output <- inception_3b/1x1
[0] I0619 19:48:51.899955 32180 net.cpp:267] Setting up pool3/3x3_s2_pool3/3x3_s2_0_split
[3] I0619 19:48:51.900629 23187 net.cpp:864] inception_3b/output <- inception_3b/3x3
[0] I0619 19:48:51.899996 32180 net.cpp:274] Top shape: 96 480 14 14 (9031680)
[3] I0619 19:48:51.900665 23187 net.cpp:864] inception_3b/output <- inception_3b/5x5
[3] I0619 19:48:51.900713 23187 net.cpp:864] inception_3b/output <- inception_3b/pool_proj
[0] I0619 19:48:51.900025 32180 net.cpp:274] Top shape: 96 480 14 14 (9031680)
[0] I0619 19:48:51.900053 32180 net.cpp:274] Top shape: 96 480 14 14 (9031680)
[3] I0619 19:48:51.900763 23187 net.cpp:838] inception_3b/output -> inception_3b/output
[0] I0619 19:48:51.900081 32180 net.cpp:274] Top shape: 96 480 14 14 (9031680)
[3] I0619 19:48:51.900890 23187 net.cpp:267] Setting up inception_3b/output
[0] I0619 19:48:51.900106 32180 net.cpp:282] Memory required for data: 3417589248
[0] I0619 19:48:51.900131 32180 layer_factory.hpp:114] Creating layer inception_4a/1x1
[3] I0619 19:48:51.900935 23187 net.cpp:274] Top shape: 96 480 28 28 (36126720)
[0] I0619 19:48:51.900204 32180 net.cpp:183] Creating Layer inception_4a/1x1
[3] I0619 19:48:51.900959 23187 net.cpp:282] Memory required for data: 3236955648
[1] I0619 19:48:51.745658 32264 net.cpp:267] Setting up inception_3b/pool_proj
[0] I0619 19:48:51.900234 32180 net.cpp:864] inception_4a/1x1 <- pool3/3x3_s2_pool3/3x3_s2_0_split_0
[3] I0619 19:48:51.900990 23187 layer_factory.hpp:114] Creating layer pool3/3x3_s2
[1] I0619 19:48:51.745757 32264 net.cpp:274] Top shape: 96 64 28 28 (4816896)
[1] I0619 19:48:51.745782 32264 net.cpp:282] Memory required for data: 3073181184
[0] I0619 19:48:51.900279 32180 net.cpp:838] inception_4a/1x1 -> inception_4a/1x1
[3] I0619 19:48:51.901041 23187 net.cpp:183] Creating Layer pool3/3x3_s2
[3] I0619 19:48:51.901064 23187 net.cpp:864] pool3/3x3_s2 <- inception_3b/output
[1] I0619 19:48:51.745834 32264 layer_factory.hpp:114] Creating layer inception_3b/relu_pool_proj
[3] I0619 19:48:51.901096 23187 net.cpp:838] pool3/3x3_s2 -> pool3/3x3_s2
[1] I0619 19:48:51.745993 32264 net.cpp:183] Creating Layer inception_3b/relu_pool_proj
[3] I0619 19:48:51.901166 23187 net.cpp:267] Setting up pool3/3x3_s2
[1] I0619 19:48:51.746033 32264 net.cpp:864] inception_3b/relu_pool_proj <- inception_3b/pool_proj
[3] I0619 19:48:51.901203 23187 net.cpp:274] Top shape: 96 480 14 14 (9031680)
[3] I0619 19:48:51.901226 23187 net.cpp:282] Memory required for data: 3273082368
[3] I0619 19:48:51.901248 23187 layer_factory.hpp:114] Creating layer pool3/3x3_s2_pool3/3x3_s2_0_split
[3] I0619 19:48:51.901285 23187 net.cpp:183] Creating Layer pool3/3x3_s2_pool3/3x3_s2_0_split
[1] I0619 19:48:51.746114 32264 net.cpp:825] inception_3b/relu_pool_proj -> inception_3b/pool_proj (in-place)
[3] I0619 19:48:51.901309 23187 net.cpp:864] pool3/3x3_s2_pool3/3x3_s2_0_split <- pool3/3x3_s2
[1] I0619 19:48:51.746188 32264 net.cpp:267] Setting up inception_3b/relu_pool_proj
[3] I0619 19:48:51.901343 23187 net.cpp:838] pool3/3x3_s2_pool3/3x3_s2_0_split -> pool3/3x3_s2_pool3/3x3_s2_0_split_0
[1] I0619 19:48:51.746233 32264 net.cpp:274] Top shape: 96 64 28 28 (4816896)
[1] I0619 19:48:51.746255 32264 net.cpp:282] Memory required for data: 3092448768
[3] I0619 19:48:51.901392 23187 net.cpp:838] pool3/3x3_s2_pool3/3x3_s2_0_split -> pool3/3x3_s2_pool3/3x3_s2_0_split_1
[3] I0619 19:48:51.901430 23187 net.cpp:838] pool3/3x3_s2_pool3/3x3_s2_0_split -> pool3/3x3_s2_pool3/3x3_s2_0_split_2
[1] I0619 19:48:51.746281 32264 layer_factory.hpp:114] Creating layer inception_3b/output
[3] I0619 19:48:51.901465 23187 net.cpp:838] pool3/3x3_s2_pool3/3x3_s2_0_split -> pool3/3x3_s2_pool3/3x3_s2_0_split_3
[1] I0619 19:48:51.746321 32264 net.cpp:183] Creating Layer inception_3b/output
[3] I0619 19:48:51.901541 23187 net.cpp:267] Setting up pool3/3x3_s2_pool3/3x3_s2_0_split
[1] I0619 19:48:51.746352 32264 net.cpp:864] inception_3b/output <- inception_3b/1x1
[1] I0619 19:48:51.746381 32264 net.cpp:864] inception_3b/output <- inception_3b/3x3
[3] I0619 19:48:51.901573 23187 net.cpp:274] Top shape: 96 480 14 14 (9031680)
[1] I0619 19:48:51.746407 32264 net.cpp:864] inception_3b/output <- inception_3b/5x5
[3] I0619 19:48:51.901615 23187 net.cpp:274] Top shape: 96 480 14 14 (9031680)
[1] I0619 19:48:51.746438 32264 net.cpp:864] inception_3b/output <- inception_3b/pool_proj
[3] I0619 19:48:51.901653 23187 net.cpp:274] Top shape: 96 480 14 14 (9031680)
[3] I0619 19:48:51.901681 23187 net.cpp:274] Top shape: 96 480 14 14 (9031680)
[3] I0619 19:48:51.901721 23187 net.cpp:282] Memory required for data: 3417589248
[1] I0619 19:48:51.746482 32264 net.cpp:838] inception_3b/output -> inception_3b/output
[3] I0619 19:48:51.901747 23187 layer_factory.hpp:114] Creating layer inception_4a/1x1
[1] I0619 19:48:51.746603 32264 net.cpp:267] Setting up inception_3b/output
[1] I0619 19:48:51.746649 32264 net.cpp:274] Top shape: 96 480 28 28 (36126720)
[1] I0619 19:48:51.746676 32264 net.cpp:282] Memory required for data: 3236955648
[1] I0619 19:48:51.746708 32264 layer_factory.hpp:114] Creating layer pool3/3x3_s2
[1] I0619 19:48:51.746759 32264 net.cpp:183] Creating Layer pool3/3x3_s2
[1] I0619 19:48:51.746788 32264 net.cpp:864] pool3/3x3_s2 <- inception_3b/output
[1] I0619 19:48:51.746820 32264 net.cpp:838] pool3/3x3_s2 -> pool3/3x3_s2
[1] I0619 19:48:51.746882 32264 net.cpp:267] Setting up pool3/3x3_s2
[3] I0619 19:48:51.901818 23187 net.cpp:183] Creating Layer inception_4a/1x1
[1] I0619 19:48:51.746919 32264 net.cpp:274] Top shape: 96 480 14 14 (9031680)
[1] I0619 19:48:51.746940 32264 net.cpp:282] Memory required for data: 3273082368
[1] I0619 19:48:51.746963 32264 layer_factory.hpp:114] Creating layer pool3/3x3_s2_pool3/3x3_s2_0_split
[3] I0619 19:48:51.901849 23187 net.cpp:864] inception_4a/1x1 <- pool3/3x3_s2_pool3/3x3_s2_0_split_0
[1] I0619 19:48:51.747000 32264 net.cpp:183] Creating Layer pool3/3x3_s2_pool3/3x3_s2_0_split
[3] I0619 19:48:51.901895 23187 net.cpp:838] inception_4a/1x1 -> inception_4a/1x1
[1] I0619 19:48:51.747030 32264 net.cpp:864] pool3/3x3_s2_pool3/3x3_s2_0_split <- pool3/3x3_s2
[1] I0619 19:48:51.747079 32264 net.cpp:838] pool3/3x3_s2_pool3/3x3_s2_0_split -> pool3/3x3_s2_pool3/3x3_s2_0_split_0
[1] I0619 19:48:51.747117 32264 net.cpp:838] pool3/3x3_s2_pool3/3x3_s2_0_split -> pool3/3x3_s2_pool3/3x3_s2_0_split_1
[1] I0619 19:48:51.747166 32264 net.cpp:838] pool3/3x3_s2_pool3/3x3_s2_0_split -> pool3/3x3_s2_pool3/3x3_s2_0_split_2
[1] I0619 19:48:51.747203 32264 net.cpp:838] pool3/3x3_s2_pool3/3x3_s2_0_split -> pool3/3x3_s2_pool3/3x3_s2_0_split_3
[1] I0619 19:48:51.747280 32264 net.cpp:267] Setting up pool3/3x3_s2_pool3/3x3_s2_0_split
[1] I0619 19:48:51.747313 32264 net.cpp:274] Top shape: 96 480 14 14 (9031680)
[1] I0619 19:48:51.747349 32264 net.cpp:274] Top shape: 96 480 14 14 (9031680)
[1] I0619 19:48:51.747385 32264 net.cpp:274] Top shape: 96 480 14 14 (9031680)
[1] I0619 19:48:51.747417 32264 net.cpp:274] Top shape: 96 480 14 14 (9031680)
[1] I0619 19:48:51.747443 32264 net.cpp:282] Memory required for data: 3417589248
[1] I0619 19:48:51.747467 32264 layer_factory.hpp:114] Creating layer inception_4a/1x1
[1] I0619 19:48:51.747550 32264 net.cpp:183] Creating Layer inception_4a/1x1
[1] I0619 19:48:51.747578 32264 net.cpp:864] inception_4a/1x1 <- pool3/3x3_s2_pool3/3x3_s2_0_split_0
[1] I0619 19:48:51.747620 32264 net.cpp:838] inception_4a/1x1 -> inception_4a/1x1
[2] I0619 19:48:51.908942 32946 net.cpp:267] Setting up inception_3b/pool_proj
[2] I0619 19:48:51.909044 32946 net.cpp:274] Top shape: 96 64 28 28 (4816896)
[2] I0619 19:48:51.909067 32946 net.cpp:282] Memory required for data: 3073181184
[2] I0619 19:48:51.909118 32946 layer_factory.hpp:114] Creating layer inception_3b/relu_pool_proj
[2] I0619 19:48:51.909282 32946 net.cpp:183] Creating Layer inception_3b/relu_pool_proj
[2] I0619 19:48:51.909328 32946 net.cpp:864] inception_3b/relu_pool_proj <- inception_3b/pool_proj
[2] I0619 19:48:51.909381 32946 net.cpp:825] inception_3b/relu_pool_proj -> inception_3b/pool_proj (in-place)
[2] I0619 19:48:51.909459 32946 net.cpp:267] Setting up inception_3b/relu_pool_proj
[2] I0619 19:48:51.909497 32946 net.cpp:274] Top shape: 96 64 28 28 (4816896)
[2] I0619 19:48:51.909529 32946 net.cpp:282] Memory required for data: 3092448768
[2] I0619 19:48:51.909555 32946 layer_factory.hpp:114] Creating layer inception_3b/output
[2] I0619 19:48:51.909601 32946 net.cpp:183] Creating Layer inception_3b/output
[2] I0619 19:48:51.909632 32946 net.cpp:864] inception_3b/output <- inception_3b/1x1
[2] I0619 19:48:51.909668 32946 net.cpp:864] inception_3b/output <- inception_3b/3x3
[2] I0619 19:48:51.909730 32946 net.cpp:864] inception_3b/output <- inception_3b/5x5
[2] I0619 19:48:51.909766 32946 net.cpp:864] inception_3b/output <- inception_3b/pool_proj
[2] I0619 19:48:51.909816 32946 net.cpp:838] inception_3b/output -> inception_3b/output
[2] I0619 19:48:51.909939 32946 net.cpp:267] Setting up inception_3b/output
[2] I0619 19:48:51.909986 32946 net.cpp:274] Top shape: 96 480 28 28 (36126720)
[2] I0619 19:48:51.910014 32946 net.cpp:282] Memory required for data: 3236955648
[2] I0619 19:48:51.910039 32946 layer_factory.hpp:114] Creating layer pool3/3x3_s2
[2] I0619 19:48:51.910086 32946 net.cpp:183] Creating Layer pool3/3x3_s2
[2] I0619 19:48:51.910115 32946 net.cpp:864] pool3/3x3_s2 <- inception_3b/output
[2] I0619 19:48:51.910148 32946 net.cpp:838] pool3/3x3_s2 -> pool3/3x3_s2
[2] I0619 19:48:51.910223 32946 net.cpp:267] Setting up pool3/3x3_s2
[2] I0619 19:48:51.910260 32946 net.cpp:274] Top shape: 96 480 14 14 (9031680)
[2] I0619 19:48:51.910282 32946 net.cpp:282] Memory required for data: 3273082368
[2] I0619 19:48:51.910311 32946 layer_factory.hpp:114] Creating layer pool3/3x3_s2_pool3/3x3_s2_0_split
[2] I0619 19:48:51.910349 32946 net.cpp:183] Creating Layer pool3/3x3_s2_pool3/3x3_s2_0_split
[2] I0619 19:48:51.910378 32946 net.cpp:864] pool3/3x3_s2_pool3/3x3_s2_0_split <- pool3/3x3_s2
[2] I0619 19:48:51.910409 32946 net.cpp:838] pool3/3x3_s2_pool3/3x3_s2_0_split -> pool3/3x3_s2_pool3/3x3_s2_0_split_0
[2] I0619 19:48:51.910459 32946 net.cpp:838] pool3/3x3_s2_pool3/3x3_s2_0_split -> pool3/3x3_s2_pool3/3x3_s2_0_split_1
[2] I0619 19:48:51.910502 32946 net.cpp:838] pool3/3x3_s2_pool3/3x3_s2_0_split -> pool3/3x3_s2_pool3/3x3_s2_0_split_2
[2] I0619 19:48:51.910544 32946 net.cpp:838] pool3/3x3_s2_pool3/3x3_s2_0_split -> pool3/3x3_s2_pool3/3x3_s2_0_split_3
[2] I0619 19:48:51.910629 32946 net.cpp:267] Setting up pool3/3x3_s2_pool3/3x3_s2_0_split
[2] I0619 19:48:51.910666 32946 net.cpp:274] Top shape: 96 480 14 14 (9031680)
[2] I0619 19:48:51.910729 32946 net.cpp:274] Top shape: 96 480 14 14 (9031680)
[2] I0619 19:48:51.910765 32946 net.cpp:274] Top shape: 96 480 14 14 (9031680)
[2] I0619 19:48:51.910802 32946 net.cpp:274] Top shape: 96 480 14 14 (9031680)
[2] I0619 19:48:51.910830 32946 net.cpp:282] Memory required for data: 3417589248
[2] I0619 19:48:51.910853 32946 layer_factory.hpp:114] Creating layer inception_4a/1x1
[2] I0619 19:48:51.910926 32946 net.cpp:183] Creating Layer inception_4a/1x1
[2] I0619 19:48:51.910956 32946 net.cpp:864] inception_4a/1x1 <- pool3/3x3_s2_pool3/3x3_s2_0_split_0
[2] I0619 19:48:51.911000 32946 net.cpp:838] inception_4a/1x1 -> inception_4a/1x1
[0] I0619 19:48:51.917881 32180 net.cpp:267] Setting up inception_4a/1x1
[0] I0619 19:48:51.918014 32180 net.cpp:274] Top shape: 96 192 14 14 (3612672)
[0] I0619 19:48:51.918037 32180 net.cpp:282] Memory required for data: 3432039936
[0] I0619 19:48:51.918088 32180 layer_factory.hpp:114] Creating layer inception_4a/relu_1x1
[0] I0619 19:48:51.918160 32180 net.cpp:183] Creating Layer inception_4a/relu_1x1
[0] I0619 19:48:51.918196 32180 net.cpp:864] inception_4a/relu_1x1 <- inception_4a/1x1
[0] I0619 19:48:51.918231 32180 net.cpp:825] inception_4a/relu_1x1 -> inception_4a/1x1 (in-place)
[0] I0619 19:48:51.918299 32180 net.cpp:267] Setting up inception_4a/relu_1x1
[0] I0619 19:48:51.918337 32180 net.cpp:274] Top shape: 96 192 14 14 (3612672)
[0] I0619 19:48:51.918449 32180 net.cpp:282] Memory required for data: 3446490624
[0] I0619 19:48:51.918478 32180 layer_factory.hpp:114] Creating layer inception_4a/3x3_reduce
[0] I0619 19:48:51.918566 32180 net.cpp:183] Creating Layer inception_4a/3x3_reduce
[0] I0619 19:48:51.918602 32180 net.cpp:864] inception_4a/3x3_reduce <- pool3/3x3_s2_pool3/3x3_s2_0_split_1
[0] I0619 19:48:51.918642 32180 net.cpp:838] inception_4a/3x3_reduce -> inception_4a/3x3_reduce
[3] I0619 19:48:51.918681 23187 net.cpp:267] Setting up inception_4a/1x1
[3] I0619 19:48:51.918817 23187 net.cpp:274] Top shape: 96 192 14 14 (3612672)
[3] I0619 19:48:51.918840 23187 net.cpp:282] Memory required for data: 3432039936
[3] I0619 19:48:51.918892 23187 layer_factory.hpp:114] Creating layer inception_4a/relu_1x1
[3] I0619 19:48:51.918972 23187 net.cpp:183] Creating Layer inception_4a/relu_1x1
[3] I0619 19:48:51.919009 23187 net.cpp:864] inception_4a/relu_1x1 <- inception_4a/1x1
[3] I0619 19:48:51.919054 23187 net.cpp:825] inception_4a/relu_1x1 -> inception_4a/1x1 (in-place)
[3] I0619 19:48:51.919124 23187 net.cpp:267] Setting up inception_4a/relu_1x1
[3] I0619 19:48:51.919157 23187 net.cpp:274] Top shape: 96 192 14 14 (3612672)
[3] I0619 19:48:51.919267 23187 net.cpp:282] Memory required for data: 3446490624
[3] I0619 19:48:51.919296 23187 layer_factory.hpp:114] Creating layer inception_4a/3x3_reduce
[3] I0619 19:48:51.919378 23187 net.cpp:183] Creating Layer inception_4a/3x3_reduce
[3] I0619 19:48:51.919411 23187 net.cpp:864] inception_4a/3x3_reduce <- pool3/3x3_s2_pool3/3x3_s2_0_split_1
[3] I0619 19:48:51.919458 23187 net.cpp:838] inception_4a/3x3_reduce -> inception_4a/3x3_reduce
[1] I0619 19:48:51.765770 32264 net.cpp:267] Setting up inception_4a/1x1
[1] I0619 19:48:51.765874 32264 net.cpp:274] Top shape: 96 192 14 14 (3612672)
[1] I0619 19:48:51.765898 32264 net.cpp:282] Memory required for data: 3432039936
[1] I0619 19:48:51.765949 32264 layer_factory.hpp:114] Creating layer inception_4a/relu_1x1
[1] I0619 19:48:51.766019 32264 net.cpp:183] Creating Layer inception_4a/relu_1x1
[1] I0619 19:48:51.766079 32264 net.cpp:864] inception_4a/relu_1x1 <- inception_4a/1x1
[1] I0619 19:48:51.766124 32264 net.cpp:825] inception_4a/relu_1x1 -> inception_4a/1x1 (in-place)
[1] I0619 19:48:51.766197 32264 net.cpp:267] Setting up inception_4a/relu_1x1
[1] I0619 19:48:51.766237 32264 net.cpp:274] Top shape: 96 192 14 14 (3612672)
[1] I0619 19:48:51.766346 32264 net.cpp:282] Memory required for data: 3446490624
[1] I0619 19:48:51.766373 32264 layer_factory.hpp:114] Creating layer inception_4a/3x3_reduce
[1] I0619 19:48:51.766456 32264 net.cpp:183] Creating Layer inception_4a/3x3_reduce
[1] I0619 19:48:51.766490 32264 net.cpp:864] inception_4a/3x3_reduce <- pool3/3x3_s2_pool3/3x3_s2_0_split_1
[1] I0619 19:48:51.766536 32264 net.cpp:838] inception_4a/3x3_reduce -> inception_4a/3x3_reduce
[2] I0619 19:48:51.928311 32946 net.cpp:267] Setting up inception_4a/1x1
[2] I0619 19:48:51.928418 32946 net.cpp:274] Top shape: 96 192 14 14 (3612672)
[2] I0619 19:48:51.928442 32946 net.cpp:282] Memory required for data: 3432039936
[2] I0619 19:48:51.928493 32946 layer_factory.hpp:114] Creating layer inception_4a/relu_1x1
[2] I0619 19:48:51.928570 32946 net.cpp:183] Creating Layer inception_4a/relu_1x1
[2] I0619 19:48:51.928609 32946 net.cpp:864] inception_4a/relu_1x1 <- inception_4a/1x1
[2] I0619 19:48:51.928665 32946 net.cpp:825] inception_4a/relu_1x1 -> inception_4a/1x1 (in-place)
[2] I0619 19:48:51.928786 32946 net.cpp:267] Setting up inception_4a/relu_1x1
[2] I0619 19:48:51.928825 32946 net.cpp:274] Top shape: 96 192 14 14 (3612672)
[2] I0619 19:48:51.928936 32946 net.cpp:282] Memory required for data: 3446490624
[2] I0619 19:48:51.928963 32946 layer_factory.hpp:114] Creating layer inception_4a/3x3_reduce
[2] I0619 19:48:51.929057 32946 net.cpp:183] Creating Layer inception_4a/3x3_reduce
[2] I0619 19:48:51.929093 32946 net.cpp:864] inception_4a/3x3_reduce <- pool3/3x3_s2_pool3/3x3_s2_0_split_1
[2] I0619 19:48:51.929152 32946 net.cpp:838] inception_4a/3x3_reduce -> inception_4a/3x3_reduce
[0] I0619 19:48:51.933760 32180 net.cpp:267] Setting up inception_4a/3x3_reduce
[0] I0619 19:48:51.933862 32180 net.cpp:274] Top shape: 96 96 14 14 (1806336)
[0] I0619 19:48:51.933887 32180 net.cpp:282] Memory required for data: 3453715968
[0] I0619 19:48:51.933997 32180 layer_factory.hpp:114] Creating layer inception_4a/relu_3x3_reduce
[3] I0619 19:48:51.934149 23187 net.cpp:267] Setting up inception_4a/3x3_reduce
[0] I0619 19:48:51.934067 32180 net.cpp:183] Creating Layer inception_4a/relu_3x3_reduce
[3] I0619 19:48:51.934250 23187 net.cpp:274] Top shape: 96 96 14 14 (1806336)
[3] I0619 19:48:51.934273 23187 net.cpp:282] Memory required for data: 3453715968
[0] I0619 19:48:51.934095 32180 net.cpp:864] inception_4a/relu_3x3_reduce <- inception_4a/3x3_reduce
[3] I0619 19:48:51.934350 23187 layer_factory.hpp:114] Creating layer inception_4a/relu_3x3_reduce
[0] I0619 19:48:51.934129 32180 net.cpp:825] inception_4a/relu_3x3_reduce -> inception_4a/3x3_reduce (in-place)
[3] I0619 19:48:51.934429 23187 net.cpp:183] Creating Layer inception_4a/relu_3x3_reduce
[0] I0619 19:48:51.934206 32180 net.cpp:267] Setting up inception_4a/relu_3x3_reduce
[3] I0619 19:48:51.934459 23187 net.cpp:864] inception_4a/relu_3x3_reduce <- inception_4a/3x3_reduce
[0] I0619 19:48:51.934257 32180 net.cpp:274] Top shape: 96 96 14 14 (1806336)
[3] I0619 19:48:51.934492 23187 net.cpp:825] inception_4a/relu_3x3_reduce -> inception_4a/3x3_reduce (in-place)
[0] I0619 19:48:51.934285 32180 net.cpp:282] Memory required for data: 3460941312
[0] I0619 19:48:51.934309 32180 layer_factory.hpp:114] Creating layer inception_4a/3x3
[3] I0619 19:48:51.934567 23187 net.cpp:267] Setting up inception_4a/relu_3x3_reduce
[0] I0619 19:48:51.934384 32180 net.cpp:183] Creating Layer inception_4a/3x3
[3] I0619 19:48:51.934600 23187 net.cpp:274] Top shape: 96 96 14 14 (1806336)
[0] I0619 19:48:51.934414 32180 net.cpp:864] inception_4a/3x3 <- inception_4a/3x3_reduce
[3] I0619 19:48:51.934626 23187 net.cpp:282] Memory required for data: 3460941312
[3] I0619 19:48:51.934651 23187 layer_factory.hpp:114] Creating layer inception_4a/3x3
[0] I0619 19:48:51.934458 32180 net.cpp:838] inception_4a/3x3 -> inception_4a/3x3
[3] I0619 19:48:51.934762 23187 net.cpp:183] Creating Layer inception_4a/3x3
[3] I0619 19:48:51.934797 23187 net.cpp:864] inception_4a/3x3 <- inception_4a/3x3_reduce
[3] I0619 19:48:51.934834 23187 net.cpp:838] inception_4a/3x3 -> inception_4a/3x3
[1] I0619 19:48:51.780946 32264 net.cpp:267] Setting up inception_4a/3x3_reduce
[1] I0619 19:48:51.781076 32264 net.cpp:274] Top shape: 96 96 14 14 (1806336)
[1] I0619 19:48:51.781101 32264 net.cpp:282] Memory required for data: 3453715968
[1] I0619 19:48:51.781182 32264 layer_factory.hpp:114] Creating layer inception_4a/relu_3x3_reduce
[1] I0619 19:48:51.781261 32264 net.cpp:183] Creating Layer inception_4a/relu_3x3_reduce
[1] I0619 19:48:51.781293 32264 net.cpp:864] inception_4a/relu_3x3_reduce <- inception_4a/3x3_reduce
[1] I0619 19:48:51.781327 32264 net.cpp:825] inception_4a/relu_3x3_reduce -> inception_4a/3x3_reduce (in-place)
[1] I0619 19:48:51.781402 32264 net.cpp:267] Setting up inception_4a/relu_3x3_reduce
[1] I0619 19:48:51.781445 32264 net.cpp:274] Top shape: 96 96 14 14 (1806336)
[1] I0619 19:48:51.781467 32264 net.cpp:282] Memory required for data: 3460941312
[1] I0619 19:48:51.781500 32264 layer_factory.hpp:114] Creating layer inception_4a/3x3
[1] I0619 19:48:51.781581 32264 net.cpp:183] Creating Layer inception_4a/3x3
[1] I0619 19:48:51.781611 32264 net.cpp:864] inception_4a/3x3 <- inception_4a/3x3_reduce
[1] I0619 19:48:51.781647 32264 net.cpp:838] inception_4a/3x3 -> inception_4a/3x3
[2] I0619 19:48:51.944553 32946 net.cpp:267] Setting up inception_4a/3x3_reduce
[2] I0619 19:48:51.944658 32946 net.cpp:274] Top shape: 96 96 14 14 (1806336)
[2] I0619 19:48:51.944710 32946 net.cpp:282] Memory required for data: 3453715968
[2] I0619 19:48:51.944788 32946 layer_factory.hpp:114] Creating layer inception_4a/relu_3x3_reduce
[2] I0619 19:48:51.945009 32946 net.cpp:183] Creating Layer inception_4a/relu_3x3_reduce
[2] I0619 19:48:51.945052 32946 net.cpp:864] inception_4a/relu_3x3_reduce <- inception_4a/3x3_reduce
[2] I0619 19:48:51.945088 32946 net.cpp:825] inception_4a/relu_3x3_reduce -> inception_4a/3x3_reduce (in-place)
[2] I0619 19:48:51.945169 32946 net.cpp:267] Setting up inception_4a/relu_3x3_reduce
[2] I0619 19:48:51.945209 32946 net.cpp:274] Top shape: 96 96 14 14 (1806336)
[2] I0619 19:48:51.945241 32946 net.cpp:282] Memory required for data: 3460941312
[2] I0619 19:48:51.945277 32946 layer_factory.hpp:114] Creating layer inception_4a/3x3
[2] I0619 19:48:51.945374 32946 net.cpp:183] Creating Layer inception_4a/3x3
[2] I0619 19:48:51.945405 32946 net.cpp:864] inception_4a/3x3 <- inception_4a/3x3_reduce
[2] I0619 19:48:51.945442 32946 net.cpp:838] inception_4a/3x3 -> inception_4a/3x3
[0] I0619 19:48:51.950803 32180 net.cpp:267] Setting up inception_4a/3x3
[0] I0619 19:48:51.950929 32180 net.cpp:274] Top shape: 96 208 14 14 (3913728)
[0] I0619 19:48:51.950953 32180 net.cpp:282] Memory required for data: 3476596224
[0] I0619 19:48:51.951005 32180 layer_factory.hpp:114] Creating layer inception_4a/relu_3x3
[3] I0619 19:48:51.951139 23187 net.cpp:267] Setting up inception_4a/3x3
[0] I0619 19:48:51.951077 32180 net.cpp:183] Creating Layer inception_4a/relu_3x3
[3] I0619 19:48:51.951239 23187 net.cpp:274] Top shape: 96 208 14 14 (3913728)
[3] I0619 19:48:51.951263 23187 net.cpp:282] Memory required for data: 3476596224
[0] I0619 19:48:51.951113 32180 net.cpp:864] inception_4a/relu_3x3 <- inception_4a/3x3
[3] I0619 19:48:51.951315 23187 layer_factory.hpp:114] Creating layer inception_4a/relu_3x3
[0] I0619 19:48:51.951158 32180 net.cpp:825] inception_4a/relu_3x3 -> inception_4a/3x3 (in-place)
[3] I0619 19:48:51.951385 23187 net.cpp:183] Creating Layer inception_4a/relu_3x3
[0] I0619 19:48:51.951232 32180 net.cpp:267] Setting up inception_4a/relu_3x3
[3] I0619 19:48:51.951421 23187 net.cpp:864] inception_4a/relu_3x3 <- inception_4a/3x3
[0] I0619 19:48:51.951269 32180 net.cpp:274] Top shape: 96 208 14 14 (3913728)
[0] I0619 19:48:51.951292 32180 net.cpp:282] Memory required for data: 3492251136
[3] I0619 19:48:51.951464 23187 net.cpp:825] inception_4a/relu_3x3 -> inception_4a/3x3 (in-place)
[0] I0619 19:48:51.951315 32180 layer_factory.hpp:114] Creating layer inception_4a/5x5_reduce
[3] I0619 19:48:51.951539 23187 net.cpp:267] Setting up inception_4a/relu_3x3
[0] I0619 19:48:51.951402 32180 net.cpp:183] Creating Layer inception_4a/5x5_reduce
[3] I0619 19:48:51.951575 23187 net.cpp:274] Top shape: 96 208 14 14 (3913728)
[3] I0619 19:48:51.951597 23187 net.cpp:282] Memory required for data: 3492251136
[0] I0619 19:48:51.951431 32180 net.cpp:864] inception_4a/5x5_reduce <- pool3/3x3_s2_pool3/3x3_s2_0_split_2
[3] I0619 19:48:51.951622 23187 layer_factory.hpp:114] Creating layer inception_4a/5x5_reduce
[0] I0619 19:48:51.951481 32180 net.cpp:838] inception_4a/5x5_reduce -> inception_4a/5x5_reduce
[3] I0619 19:48:51.951737 23187 net.cpp:183] Creating Layer inception_4a/5x5_reduce
[3] I0619 19:48:51.951767 23187 net.cpp:864] inception_4a/5x5_reduce <- pool3/3x3_s2_pool3/3x3_s2_0_split_2
[3] I0619 19:48:51.951820 23187 net.cpp:838] inception_4a/5x5_reduce -> inception_4a/5x5_reduce
[1] I0619 19:48:51.798182 32264 net.cpp:267] Setting up inception_4a/3x3
[1] I0619 19:48:51.798285 32264 net.cpp:274] Top shape: 96 208 14 14 (3913728)
[1] I0619 19:48:51.798308 32264 net.cpp:282] Memory required for data: 3476596224
[1] I0619 19:48:51.798362 32264 layer_factory.hpp:114] Creating layer inception_4a/relu_3x3
[1] I0619 19:48:51.798431 32264 net.cpp:183] Creating Layer inception_4a/relu_3x3
[1] I0619 19:48:51.798466 32264 net.cpp:864] inception_4a/relu_3x3 <- inception_4a/3x3
[1] I0619 19:48:51.798501 32264 net.cpp:825] inception_4a/relu_3x3 -> inception_4a/3x3 (in-place)
[1] I0619 19:48:51.798569 32264 net.cpp:267] Setting up inception_4a/relu_3x3
[1] I0619 19:48:51.798607 32264 net.cpp:274] Top shape: 96 208 14 14 (3913728)
[1] I0619 19:48:51.798629 32264 net.cpp:282] Memory required for data: 3492251136
[1] I0619 19:48:51.798652 32264 layer_factory.hpp:114] Creating layer inception_4a/5x5_reduce
[1] I0619 19:48:51.798714 32264 net.cpp:183] Creating Layer inception_4a/5x5_reduce
[1] I0619 19:48:51.798748 32264 net.cpp:864] inception_4a/5x5_reduce <- pool3/3x3_s2_pool3/3x3_s2_0_split_2
[1] I0619 19:48:51.798784 32264 net.cpp:838] inception_4a/5x5_reduce -> inception_4a/5x5_reduce
[2] I0619 19:48:51.962807 32946 net.cpp:267] Setting up inception_4a/3x3
[2] I0619 19:48:51.962910 32946 net.cpp:274] Top shape: 96 208 14 14 (3913728)
[2] I0619 19:48:51.962934 32946 net.cpp:282] Memory required for data: 3476596224
[2] I0619 19:48:51.962985 32946 layer_factory.hpp:114] Creating layer inception_4a/relu_3x3
[2] I0619 19:48:51.963064 32946 net.cpp:183] Creating Layer inception_4a/relu_3x3
[2] I0619 19:48:51.963104 32946 net.cpp:864] inception_4a/relu_3x3 <- inception_4a/3x3
[2] I0619 19:48:51.963160 32946 net.cpp:825] inception_4a/relu_3x3 -> inception_4a/3x3 (in-place)
[2] I0619 19:48:51.963240 32946 net.cpp:267] Setting up inception_4a/relu_3x3
[2] I0619 19:48:51.963279 32946 net.cpp:274] Top shape: 96 208 14 14 (3913728)
[2] I0619 19:48:51.963305 32946 net.cpp:282] Memory required for data: 3492251136
[2] I0619 19:48:51.963340 32946 layer_factory.hpp:114] Creating layer inception_4a/5x5_reduce
[2] I0619 19:48:51.963430 32946 net.cpp:183] Creating Layer inception_4a/5x5_reduce
[2] I0619 19:48:51.963464 32946 net.cpp:864] inception_4a/5x5_reduce <- pool3/3x3_s2_pool3/3x3_s2_0_split_2
[2] I0619 19:48:51.963521 32946 net.cpp:838] inception_4a/5x5_reduce -> inception_4a/5x5_reduce
[0] I0619 19:48:51.963521 32180 net.cpp:267] Setting up inception_4a/5x5_reduce
[0] I0619 19:48:51.963619 32180 net.cpp:274] Top shape: 96 16 14 14 (301056)
[0] I0619 19:48:51.963646 32180 net.cpp:282] Memory required for data: 3493455360
[0] I0619 19:48:51.963699 32180 layer_factory.hpp:114] Creating layer inception_4a/relu_5x5_reduce
[0] I0619 19:48:51.963771 32180 net.cpp:183] Creating Layer inception_4a/relu_5x5_reduce
[0] I0619 19:48:51.963809 32180 net.cpp:864] inception_4a/relu_5x5_reduce <- inception_4a/5x5_reduce
[3] I0619 19:48:51.963871 23187 net.cpp:267] Setting up inception_4a/5x5_reduce
[0] I0619 19:48:51.963845 32180 net.cpp:825] inception_4a/relu_5x5_reduce -> inception_4a/5x5_reduce (in-place)
[3] I0619 19:48:51.963966 23187 net.cpp:274] Top shape: 96 16 14 14 (301056)
[3] I0619 19:48:51.963990 23187 net.cpp:282] Memory required for data: 3493455360
[0] I0619 19:48:51.963956 32180 net.cpp:267] Setting up inception_4a/relu_5x5_reduce
[3] I0619 19:48:51.964042 23187 layer_factory.hpp:114] Creating layer inception_4a/relu_5x5_reduce
[0] I0619 19:48:51.964004 32180 net.cpp:274] Top shape: 96 16 14 14 (301056)
[3] I0619 19:48:51.964103 23187 net.cpp:183] Creating Layer inception_4a/relu_5x5_reduce
[0] I0619 19:48:51.964025 32180 net.cpp:282] Memory required for data: 3494659584
[3] I0619 19:48:51.964141 23187 net.cpp:864] inception_4a/relu_5x5_reduce <- inception_4a/5x5_reduce
[0] I0619 19:48:51.964056 32180 layer_factory.hpp:114] Creating layer inception_4a/5x5
[3] I0619 19:48:51.964190 23187 net.cpp:825] inception_4a/relu_5x5_reduce -> inception_4a/5x5_reduce (in-place)
[0] I0619 19:48:51.964138 32180 net.cpp:183] Creating Layer inception_4a/5x5
[3] I0619 19:48:51.964273 23187 net.cpp:267] Setting up inception_4a/relu_5x5_reduce
[0] I0619 19:48:51.964169 32180 net.cpp:864] inception_4a/5x5 <- inception_4a/5x5_reduce
[0] I0619 19:48:51.964205 32180 net.cpp:838] inception_4a/5x5 -> inception_4a/5x5
[3] I0619 19:48:51.964306 23187 net.cpp:274] Top shape: 96 16 14 14 (301056)
[3] I0619 19:48:51.964335 23187 net.cpp:282] Memory required for data: 3494659584
[3] I0619 19:48:51.964359 23187 layer_factory.hpp:114] Creating layer inception_4a/5x5
[3] I0619 19:48:51.964439 23187 net.cpp:183] Creating Layer inception_4a/5x5
[3] I0619 19:48:51.964471 23187 net.cpp:864] inception_4a/5x5 <- inception_4a/5x5_reduce
[3] I0619 19:48:51.964515 23187 net.cpp:838] inception_4a/5x5 -> inception_4a/5x5
[1] I0619 19:48:51.811251 32264 net.cpp:267] Setting up inception_4a/5x5_reduce
[1] I0619 19:48:51.811357 32264 net.cpp:274] Top shape: 96 16 14 14 (301056)
[1] I0619 19:48:51.811383 32264 net.cpp:282] Memory required for data: 3493455360
[1] I0619 19:48:51.811435 32264 layer_factory.hpp:114] Creating layer inception_4a/relu_5x5_reduce
[1] I0619 19:48:51.811503 32264 net.cpp:183] Creating Layer inception_4a/relu_5x5_reduce
[1] I0619 19:48:51.811539 32264 net.cpp:864] inception_4a/relu_5x5_reduce <- inception_4a/5x5_reduce
[1] I0619 19:48:51.811585 32264 net.cpp:825] inception_4a/relu_5x5_reduce -> inception_4a/5x5_reduce (in-place)
[1] I0619 19:48:51.811671 32264 net.cpp:267] Setting up inception_4a/relu_5x5_reduce
[1] I0619 19:48:51.811712 32264 net.cpp:274] Top shape: 96 16 14 14 (301056)
[1] I0619 19:48:51.811733 32264 net.cpp:282] Memory required for data: 3494659584
[1] I0619 19:48:51.811758 32264 layer_factory.hpp:114] Creating layer inception_4a/5x5
[1] I0619 19:48:51.811849 32264 net.cpp:183] Creating Layer inception_4a/5x5
[1] I0619 19:48:51.811882 32264 net.cpp:864] inception_4a/5x5 <- inception_4a/5x5_reduce
[1] I0619 19:48:51.811924 32264 net.cpp:838] inception_4a/5x5 -> inception_4a/5x5
[2] I0619 19:48:51.976378 32946 net.cpp:267] Setting up inception_4a/5x5_reduce
[2] I0619 19:48:51.976481 32946 net.cpp:274] Top shape: 96 16 14 14 (301056)
[2] I0619 19:48:51.976505 32946 net.cpp:282] Memory required for data: 3493455360
[2] I0619 19:48:51.976557 32946 layer_factory.hpp:114] Creating layer inception_4a/relu_5x5_reduce
[2] I0619 19:48:51.976626 32946 net.cpp:183] Creating Layer inception_4a/relu_5x5_reduce
[2] I0619 19:48:51.976666 32946 net.cpp:864] inception_4a/relu_5x5_reduce <- inception_4a/5x5_reduce
[2] I0619 19:48:51.976754 32946 net.cpp:825] inception_4a/relu_5x5_reduce -> inception_4a/5x5_reduce (in-place)
[2] I0619 19:48:51.976845 32946 net.cpp:267] Setting up inception_4a/relu_5x5_reduce
[2] I0619 19:48:51.976884 32946 net.cpp:274] Top shape: 96 16 14 14 (301056)
[2] I0619 19:48:51.976914 32946 net.cpp:282] Memory required for data: 3494659584
[2] I0619 19:48:51.976950 32946 layer_factory.hpp:114] Creating layer inception_4a/5x5
[2] I0619 19:48:51.977037 32946 net.cpp:183] Creating Layer inception_4a/5x5
[2] I0619 19:48:51.977068 32946 net.cpp:864] inception_4a/5x5 <- inception_4a/5x5_reduce
[2] I0619 19:48:51.977120 32946 net.cpp:838] inception_4a/5x5 -> inception_4a/5x5
[3] I0619 19:48:51.984319 23187 net.cpp:267] Setting up inception_4a/5x5
[0] I0619 19:48:51.984669 32180 net.cpp:267] Setting up inception_4a/5x5
[3] I0619 19:48:51.984421 23187 net.cpp:274] Top shape: 96 48 14 14 (903168)
[0] I0619 19:48:51.984771 32180 net.cpp:274] Top shape: 96 48 14 14 (903168)
[3] I0619 19:48:51.984539 23187 net.cpp:282] Memory required for data: 3498272256
[0] I0619 19:48:51.984890 32180 net.cpp:282] Memory required for data: 3498272256
[0] I0619 19:48:51.984972 32180 layer_factory.hpp:114] Creating layer inception_4a/relu_5x5
[3] I0619 19:48:51.984596 23187 layer_factory.hpp:114] Creating layer inception_4a/relu_5x5
[0] I0619 19:48:51.985044 32180 net.cpp:183] Creating Layer inception_4a/relu_5x5
[3] I0619 19:48:51.984668 23187 net.cpp:183] Creating Layer inception_4a/relu_5x5
[0] I0619 19:48:51.985080 32180 net.cpp:864] inception_4a/relu_5x5 <- inception_4a/5x5
[0] I0619 19:48:51.985123 32180 net.cpp:825] inception_4a/relu_5x5 -> inception_4a/5x5 (in-place)
[3] I0619 19:48:51.984727 23187 net.cpp:864] inception_4a/relu_5x5 <- inception_4a/5x5
[0] I0619 19:48:51.985196 32180 net.cpp:267] Setting up inception_4a/relu_5x5
[3] I0619 19:48:51.984766 23187 net.cpp:825] inception_4a/relu_5x5 -> inception_4a/5x5 (in-place)
[0] I0619 19:48:51.985234 32180 net.cpp:274] Top shape: 96 48 14 14 (903168)
[0] I0619 19:48:51.985256 32180 net.cpp:282] Memory required for data: 3501884928
[0] I0619 19:48:51.985280 32180 layer_factory.hpp:114] Creating layer inception_4a/pool
[3] I0619 19:48:51.984834 23187 net.cpp:267] Setting up inception_4a/relu_5x5
[0] I0619 19:48:51.985323 32180 net.cpp:183] Creating Layer inception_4a/pool
[3] I0619 19:48:51.984874 23187 net.cpp:274] Top shape: 96 48 14 14 (903168)
[3] I0619 19:48:51.984896 23187 net.cpp:282] Memory required for data: 3501884928
[0] I0619 19:48:51.985352 32180 net.cpp:864] inception_4a/pool <- pool3/3x3_s2_pool3/3x3_s2_0_split_3
[3] I0619 19:48:51.984920 23187 layer_factory.hpp:114] Creating layer inception_4a/pool
[0] I0619 19:48:51.985401 32180 net.cpp:838] inception_4a/pool -> inception_4a/pool
[3] I0619 19:48:51.984982 23187 net.cpp:183] Creating Layer inception_4a/pool
[0] I0619 19:48:51.985481 32180 net.cpp:267] Setting up inception_4a/pool
[3] I0619 19:48:51.985015 23187 net.cpp:864] inception_4a/pool <- pool3/3x3_s2_pool3/3x3_s2_0_split_3
[3] I0619 19:48:51.985049 23187 net.cpp:838] inception_4a/pool -> inception_4a/pool
[0] I0619 19:48:51.985512 32180 net.cpp:274] Top shape: 96 480 14 14 (9031680)
[0] I0619 19:48:51.985538 32180 net.cpp:282] Memory required for data: 3538011648
[0] I0619 19:48:51.985563 32180 layer_factory.hpp:114] Creating layer inception_4a/pool_proj
[0] I0619 19:48:51.985640 32180 net.cpp:183] Creating Layer inception_4a/pool_proj
[0] I0619 19:48:51.985666 32180 net.cpp:864] inception_4a/pool_proj <- inception_4a/pool
[0] I0619 19:48:51.985712 32180 net.cpp:838] inception_4a/pool_proj -> inception_4a/pool_proj
[3] I0619 19:48:51.985121 23187 net.cpp:267] Setting up inception_4a/pool
[3] I0619 19:48:51.985158 23187 net.cpp:274] Top shape: 96 480 14 14 (9031680)
[3] I0619 19:48:51.985188 23187 net.cpp:282] Memory required for data: 3538011648
[3] I0619 19:48:51.985213 23187 layer_factory.hpp:114] Creating layer inception_4a/pool_proj
[3] I0619 19:48:51.985299 23187 net.cpp:183] Creating Layer inception_4a/pool_proj
[3] I0619 19:48:51.985329 23187 net.cpp:864] inception_4a/pool_proj <- inception_4a/pool
[3] I0619 19:48:51.985378 23187 net.cpp:838] inception_4a/pool_proj -> inception_4a/pool_proj
[1] I0619 19:48:51.831555 32264 net.cpp:267] Setting up inception_4a/5x5
[1] I0619 19:48:51.831657 32264 net.cpp:274] Top shape: 96 48 14 14 (903168)
[1] I0619 19:48:51.831789 32264 net.cpp:282] Memory required for data: 3498272256
[1] I0619 19:48:51.831846 32264 layer_factory.hpp:114] Creating layer inception_4a/relu_5x5
[1] I0619 19:48:51.831923 32264 net.cpp:183] Creating Layer inception_4a/relu_5x5
[1] I0619 19:48:51.831954 32264 net.cpp:864] inception_4a/relu_5x5 <- inception_4a/5x5
[1] I0619 19:48:51.831993 32264 net.cpp:825] inception_4a/relu_5x5 -> inception_4a/5x5 (in-place)
[1] I0619 19:48:51.832087 32264 net.cpp:267] Setting up inception_4a/relu_5x5
[1] I0619 19:48:51.832125 32264 net.cpp:274] Top shape: 96 48 14 14 (903168)
[1] I0619 19:48:51.832154 32264 net.cpp:282] Memory required for data: 3501884928
[1] I0619 19:48:51.832180 32264 layer_factory.hpp:114] Creating layer inception_4a/pool
[1] I0619 19:48:51.832231 32264 net.cpp:183] Creating Layer inception_4a/pool
[1] I0619 19:48:51.832258 32264 net.cpp:864] inception_4a/pool <- pool3/3x3_s2_pool3/3x3_s2_0_split_3
[1] I0619 19:48:51.832300 32264 net.cpp:838] inception_4a/pool -> inception_4a/pool
[1] I0619 19:48:51.832379 32264 net.cpp:267] Setting up inception_4a/pool
[1] I0619 19:48:51.832427 32264 net.cpp:274] Top shape: 96 480 14 14 (9031680)
[1] I0619 19:48:51.832454 32264 net.cpp:282] Memory required for data: 3538011648
[1] I0619 19:48:51.832479 32264 layer_factory.hpp:114] Creating layer inception_4a/pool_proj
[1] I0619 19:48:51.832557 32264 net.cpp:183] Creating Layer inception_4a/pool_proj
[1] I0619 19:48:51.832587 32264 net.cpp:864] inception_4a/pool_proj <- inception_4a/pool
[1] I0619 19:48:51.832630 32264 net.cpp:838] inception_4a/pool_proj -> inception_4a/pool_proj
[2] I0619 19:48:51.996979 32946 net.cpp:267] Setting up inception_4a/5x5
[2] I0619 19:48:51.997083 32946 net.cpp:274] Top shape: 96 48 14 14 (903168)
[2] I0619 19:48:51.997205 32946 net.cpp:282] Memory required for data: 3498272256
[2] I0619 19:48:51.997262 32946 layer_factory.hpp:114] Creating layer inception_4a/relu_5x5
[2] I0619 19:48:51.997344 32946 net.cpp:183] Creating Layer inception_4a/relu_5x5
[2] I0619 19:48:51.997387 32946 net.cpp:864] inception_4a/relu_5x5 <- inception_4a/5x5
[2] I0619 19:48:51.997434 32946 net.cpp:825] inception_4a/relu_5x5 -> inception_4a/5x5 (in-place)
[2] I0619 19:48:51.997514 32946 net.cpp:267] Setting up inception_4a/relu_5x5
[2] I0619 19:48:51.997552 32946 net.cpp:274] Top shape: 96 48 14 14 (903168)
[2] I0619 19:48:51.997575 32946 net.cpp:282] Memory required for data: 3501884928
[2] I0619 19:48:51.997611 32946 layer_factory.hpp:114] Creating layer inception_4a/pool
[2] I0619 19:48:51.997670 32946 net.cpp:183] Creating Layer inception_4a/pool
[2] I0619 19:48:51.997736 32946 net.cpp:864] inception_4a/pool <- pool3/3x3_s2_pool3/3x3_s2_0_split_3
[2] I0619 19:48:51.997781 32946 net.cpp:838] inception_4a/pool -> inception_4a/pool
[2] I0619 19:48:51.997865 32946 net.cpp:267] Setting up inception_4a/pool
[2] I0619 19:48:51.997903 32946 net.cpp:274] Top shape: 96 480 14 14 (9031680)
[2] I0619 19:48:51.997936 32946 net.cpp:282] Memory required for data: 3538011648
[2] I0619 19:48:51.997970 32946 layer_factory.hpp:114] Creating layer inception_4a/pool_proj
[2] I0619 19:48:51.998055 32946 net.cpp:183] Creating Layer inception_4a/pool_proj
[2] I0619 19:48:51.998086 32946 net.cpp:864] inception_4a/pool_proj <- inception_4a/pool
[2] I0619 19:48:51.998129 32946 net.cpp:838] inception_4a/pool_proj -> inception_4a/pool_proj
[0] I0619 19:48:52.000398 32180 net.cpp:267] Setting up inception_4a/pool_proj
[3] I0619 19:48:52.000257 23187 net.cpp:267] Setting up inception_4a/pool_proj
[0] I0619 19:48:52.000499 32180 net.cpp:274] Top shape: 96 64 14 14 (1204224)
[0] I0619 19:48:52.000524 32180 net.cpp:282] Memory required for data: 3542828544
[3] I0619 19:48:52.000360 23187 net.cpp:274] Top shape: 96 64 14 14 (1204224)
[3] I0619 19:48:52.000382 23187 net.cpp:282] Memory required for data: 3542828544
[0] I0619 19:48:52.000576 32180 layer_factory.hpp:114] Creating layer inception_4a/relu_pool_proj
[3] I0619 19:48:52.000433 23187 layer_factory.hpp:114] Creating layer inception_4a/relu_pool_proj
[0] I0619 19:48:52.000645 32180 net.cpp:183] Creating Layer inception_4a/relu_pool_proj
[3] I0619 19:48:52.000504 23187 net.cpp:183] Creating Layer inception_4a/relu_pool_proj
[0] I0619 19:48:52.000684 32180 net.cpp:864] inception_4a/relu_pool_proj <- inception_4a/pool_proj
[3] I0619 19:48:52.000542 23187 net.cpp:864] inception_4a/relu_pool_proj <- inception_4a/pool_proj
[0] I0619 19:48:52.000720 32180 net.cpp:825] inception_4a/relu_pool_proj -> inception_4a/pool_proj (in-place)
[3] I0619 19:48:52.000577 23187 net.cpp:825] inception_4a/relu_pool_proj -> inception_4a/pool_proj (in-place)
[0] I0619 19:48:52.000788 32180 net.cpp:267] Setting up inception_4a/relu_pool_proj
[3] I0619 19:48:52.000655 23187 net.cpp:267] Setting up inception_4a/relu_pool_proj
[0] I0619 19:48:52.000833 32180 net.cpp:274] Top shape: 96 64 14 14 (1204224)
[0] I0619 19:48:52.000855 32180 net.cpp:282] Memory required for data: 3547645440
[3] I0619 19:48:52.000716 23187 net.cpp:274] Top shape: 96 64 14 14 (1204224)
[3] I0619 19:48:52.000741 23187 net.cpp:282] Memory required for data: 3547645440
[0] I0619 19:48:52.000880 32180 layer_factory.hpp:114] Creating layer inception_4a/output
[3] I0619 19:48:52.000766 23187 layer_factory.hpp:114] Creating layer inception_4a/output
[0] I0619 19:48:52.000950 32180 net.cpp:183] Creating Layer inception_4a/output
[3] I0619 19:48:52.000828 23187 net.cpp:183] Creating Layer inception_4a/output
[3] I0619 19:48:52.000852 23187 net.cpp:864] inception_4a/output <- inception_4a/1x1
[0] I0619 19:48:52.000982 32180 net.cpp:864] inception_4a/output <- inception_4a/1x1
[0] I0619 19:48:52.001010 32180 net.cpp:864] inception_4a/output <- inception_4a/3x3
[3] I0619 19:48:52.000880 23187 net.cpp:864] inception_4a/output <- inception_4a/3x3
[0] I0619 19:48:52.001037 32180 net.cpp:864] inception_4a/output <- inception_4a/5x5
[3] I0619 19:48:52.000912 23187 net.cpp:864] inception_4a/output <- inception_4a/5x5
[3] I0619 19:48:52.000939 23187 net.cpp:864] inception_4a/output <- inception_4a/pool_proj
[3] I0619 19:48:52.000969 23187 net.cpp:838] inception_4a/output -> inception_4a/output
[0] I0619 19:48:52.001072 32180 net.cpp:864] inception_4a/output <- inception_4a/pool_proj
[3] I0619 19:48:52.001087 23187 net.cpp:267] Setting up inception_4a/output
[0] I0619 19:48:52.001103 32180 net.cpp:838] inception_4a/output -> inception_4a/output
[3] I0619 19:48:52.001124 23187 net.cpp:274] Top shape: 96 512 14 14 (9633792)
[3] I0619 19:48:52.001145 23187 net.cpp:282] Memory required for data: 3586180608
[0] I0619 19:48:52.001240 32180 net.cpp:267] Setting up inception_4a/output
[3] I0619 19:48:52.001170 23187 layer_factory.hpp:114] Creating layer inception_4a/output_inception_4a/output_0_split
[0] I0619 19:48:52.001282 32180 net.cpp:274] Top shape: 96 512 14 14 (9633792)
[0] I0619 19:48:52.001304 32180 net.cpp:282] Memory required for data: 3586180608
[1] I0619 19:48:51.846009 32264 net.cpp:267] Setting up inception_4a/pool_proj
[0] I0619 19:48:52.001328 32180 layer_factory.hpp:114] Creating layer inception_4a/output_inception_4a/output_0_split
[1] I0619 19:48:51.846144 32264 net.cpp:274] Top shape: 96 64 14 14 (1204224)
[1] I0619 19:48:51.846168 32264 net.cpp:282] Memory required for data: 3542828544
[0] I0619 19:48:52.001368 32180 net.cpp:183] Creating Layer inception_4a/output_inception_4a/output_0_split
[1] I0619 19:48:51.846221 32264 layer_factory.hpp:114] Creating layer inception_4a/relu_pool_proj
[0] I0619 19:48:52.001399 32180 net.cpp:864] inception_4a/output_inception_4a/output_0_split <- inception_4a/output
…
[0] I0619 19:48:52.001483 32180 net.cpp:838] inception_4a/output_inception_4a/output_0_split -> inception_4a/output_inception_4a/output_0_split_1
[3] I0619 19:48:52.001217 23187 net.cpp:183] Creating Layer inception_4a/output_inception_4a/output_0_split
[1] I0619 19:48:51.846456 32264 net.cpp:267] Setting up inception_4a/relu_pool_proj
[0] I0619 19:48:52.001526 32180 net.cpp:838] inception_4a/output_inception_4a/output_0_split -> inception_4a/output_inception_4a/output_0_split_2
[3] I0619 19:48:52.001245 23187 net.cpp:864] inception_4a/output_inception_4a/output_0_split <- inception_4a/output
[1] I0619 19:48:51.846495 32264 net.cpp:274] Top shape: 96 64 14 14 (1204224)
[1] I0619 19:48:51.846518 32264 net.cpp:282] Memory required for data: 3547645440
[0] I0619 19:48:52.001569 32180 net.cpp:838] inception_4a/output_inception_4a/output_0_split -> inception_4a/output_inception_4a/output_0_split_3
[3] I0619 19:48:52.001277 23187 net.cpp:838] inception_4a/output_inception_4a/output_0_split -> inception_4a/output_inception_4a/output_0_split_0
[1] I0619 19:48:51.846542 32264 layer_factory.hpp:114] Creating layer inception_4a/output
[0] I0619 19:48:52.001694 32180 net.cpp:838] inception_4a/output_inception_4a/output_0_split -> inception_4a/output_inception_4a/output_0_split_4
[3] I0619 19:48:52.001320 23187 net.cpp:838] inception_4a/output_inception_4a/output_0_split -> inception_4a/output_inception_4a/output_0_split_1
[1] I0619 19:48:51.846591 32264 net.cpp:183] Creating Layer inception_4a/output
[0] I0619 19:48:52.001782 32180 net.cpp:267] Setting up inception_4a/output_inception_4a/output_0_split
[3] I0619 19:48:52.001363 23187 net.cpp:838] inception_4a/output_inception_4a/output_0_split -> inception_4a/output_inception_4a/output_0_split_2
[1] I0619 19:48:51.846621 32264 net.cpp:864] inception_4a/output <- inception_4a/1x1
[1] I0619 19:48:51.846649 32264 net.cpp:864] inception_4a/output <- inception_4a/3x3
[0] I0619 19:48:52.001829 32180 net.cpp:274] Top shape: 96 512 14 14 (9633792)
[3] I0619 19:48:52.001418 23187 net.cpp:838] inception_4a/output_inception_4a/output_0_split -> inception_4a/output_inception_4a/output_0_split_3
[1] I0619 19:48:51.846676 32264 net.cpp:864] inception_4a/output <- inception_4a/5x5
[0] I0619 19:48:52.001865 32180 net.cpp:274] Top shape: 96 512 14 14 (9633792)
[3] I0619 19:48:52.001549 23187 net.cpp:838] inception_4a/output_inception_4a/output_0_split -> inception_4a/output_inception_4a/output_0_split_4
[1] I0619 19:48:51.846714 32264 net.cpp:864] inception_4a/output <- inception_4a/pool_proj
[0] I0619 19:48:52.001917 32180 net.cpp:274] Top shape: 96 512 14 14 (9633792)
[0] I0619 19:48:52.001948 32180 net.cpp:274] Top shape: 96 512 14 14 (9633792)
[0] I0619 19:48:52.001976 32180 net.cpp:274] Top shape: 96 512 14 14 (9633792)
[3] I0619 19:48:52.001636 23187 net.cpp:267] Setting up inception_4a/output_inception_4a/output_0_split
[1] I0619 19:48:51.846748 32264 net.cpp:838] inception_4a/output -> inception_4a/output
[0] I0619 19:48:52.001997 32180 net.cpp:282] Memory required for data: 3778856448
[3] I0619 19:48:52.001677 23187 net.cpp:274] Top shape: 96 512 14 14 (9633792)
[1] I0619 19:48:51.846873 32264 net.cpp:267] Setting up inception_4a/output
[0] I0619 19:48:52.002022 32180 layer_factory.hpp:114] Creating layer loss1/ave_pool
[3] I0619 19:48:52.001732 23187 net.cpp:274] Top shape: 96 512 14 14 (9633792)
[1] I0619 19:48:51.846912 32264 net.cpp:274] Top shape: 96 512 14 14 (9633792)
[0] I0619 19:48:52.002068 32180 net.cpp:183] Creating Layer loss1/ave_pool
[3] I0619 19:48:52.001766 23187 net.cpp:274] Top shape: 96 512 14 14 (9633792)
[1] I0619 19:48:51.846940 32264 net.cpp:282] Memory required for data: 3586180608
[0] I0619 19:48:52.002099 32180 net.cpp:864] loss1/ave_pool <- inception_4a/output_inception_4a/output_0_split_0
[3] I0619 19:48:52.001803 23187 net.cpp:274] Top shape: 96 512 14 14 (9633792)
[1] I0619 19:48:51.846971 32264 layer_factory.hpp:114] Creating layer inception_4a/output_inception_4a/output_0_split
[0] I0619 19:48:52.002133 32180 net.cpp:838] loss1/ave_pool -> loss1/ave_pool
…
[3] I0619 19:48:54.643666 23187 net.cpp:864] inception_5a/output <- inception_5a/pool_proj
[3] I0619 19:48:54.643748 23187 net.cpp:838] inception_5a/output -> inception_5a/output
[3] I0619 19:48:54.643973 23187 net.cpp:267] Setting up inception_5a/output
[3] I0619 19:48:54.644047 23187 net.cpp:274] Top shape: 50 832 7 7 (2038400)
[3] I0619 19:48:54.644081 23187 net.cpp:282] Memory required for data: 2729845224
[3] I0619 19:48:54.644124 23187 layer_factory.hpp:114] Creating layer inception_5a/output_inception_5a/output_0_split
[3] I0619 19:48:54.644220 23187 net.cpp:183] Creating Layer inception_5a/output_inception_5a/output_0_split
[3] I0619 19:48:54.644281 23187 net.cpp:864] inception_5a/output_inception_5a/output_0_split <- inception_5a/output
[3] I0619 19:48:54.644335 23187 net.cpp:838] inception_5a/output_inception_5a/output_0_split -> inception_5a/output_inception_5a/output_0_split_0
[3] I0619 19:48:54.644398 23187 net.cpp:838] inception_5a/output_inception_5a/output_0_split -> inception_5a/output_inception_5a/output_0_split_1
[3] I0619 19:48:54.644479 23187 net.cpp:838] inception_5a/output_inception_5a/output_0_split -> inception_5a/output_inception_5a/output_0_split_2
[3] I0619 19:48:54.644551 23187 net.cpp:838] inception_5a/output_inception_5a/output_0_split -> inception_5a/output_inception_5a/output_0_split_3
[3] I0619 19:48:54.644655 23187 net.cpp:267] Setting up inception_5a/output_inception_5a/output_0_split
[3] I0619 19:48:54.644737 23187 net.cpp:274] Top shape: 50 832 7 7 (2038400)
[3] I0619 19:48:54.644793 23187 net.cpp:274] Top shape: 50 832 7 7 (2038400)
[3] I0619 19:48:54.644840 23187 net.cpp:274] Top shape: 50 832 7 7 (2038400)
[3] I0619 19:48:54.644877 23187 net.cpp:274] Top shape: 50 832 7 7 (2038400)
[3] I0619 19:48:54.644903 23187 net.cpp:282] Memory required for data: 2762459624
[3] I0619 19:48:54.644940 23187 layer_factory.hpp:114] Creating layer inception_5b/1x1
[3] I0619 19:48:54.645059 23187 net.cpp:183] Creating Layer inception_5b/1x1
[3] I0619 19:48:54.645107 23187 net.cpp:864] inception_5b/1x1 <- inception_5a/output_inception_5a/output_0_split_0
[3] I0619 19:48:54.645169 23187 net.cpp:838] inception_5b/1x1 -> inception_5b/1x1
[2] I0619 19:48:54.654906 32946 net.cpp:267] Setting up inception_5a/pool_proj
[2] I0619 19:48:54.655012 32946 net.cpp:274] Top shape: 50 128 7 7 (313600)
[2] I0619 19:48:54.655037 32946 net.cpp:282] Memory required for data: 2720437224
[2] I0619 19:48:54.655089 32946 layer_factory.hpp:114] Creating layer inception_5a/relu_pool_proj
[2] I0619 19:48:54.655159 32946 net.cpp:183] Creating Layer inception_5a/relu_pool_proj
[2] I0619 19:48:54.655203 32946 net.cpp:864] inception_5a/relu_pool_proj <- inception_5a/pool_proj
[2] I0619 19:48:54.655249 32946 net.cpp:825] inception_5a/relu_pool_proj -> inception_5a/pool_proj (in-place)
[2] I0619 19:48:54.655329 32946 net.cpp:267] Setting up inception_5a/relu_pool_proj
[2] I0619 19:48:54.655375 32946 net.cpp:274] Top shape: 50 128 7 7 (313600)
[2] I0619 19:48:54.655483 32946 net.cpp:282] Memory required for data: 2721691624
[2] I0619 19:48:54.655509 32946 layer_factory.hpp:114] Creating layer inception_5a/output
[2] I0619 19:48:54.655558 32946 net.cpp:183] Creating Layer inception_5a/output
[2] I0619 19:48:54.655591 32946 net.cpp:864] inception_5a/output <- inception_5a/1x1
[2] I0619 19:48:54.655628 32946 net.cpp:864] inception_5a/output <- inception_5a/3x3
[2] I0619 19:48:54.655661 32946 net.cpp:864] inception_5a/output <- inception_5a/5x5
[2] I0619 19:48:54.655726 32946 net.cpp:864] inception_5a/output <- inception_5a/pool_proj
[2] I0619 19:48:54.655769 32946 net.cpp:838] inception_5a/output -> inception_5a/output
[2] I0619 19:48:54.655916 32946 net.cpp:267] Setting up inception_5a/output
[2] I0619 19:48:54.655961 32946 net.cpp:274] Top shape: 50 832 7 7 (2038400)
[2] I0619 19:48:54.655983 32946 net.cpp:282] Memory required for data: 2729845224
[2] I0619 19:48:54.656018 32946 layer_factory.hpp:114] Creating layer inception_5a/output_inception_5a/output_0_split
[2] I0619 19:48:54.656080 32946 net.cpp:183] Creating Layer inception_5a/output_inception_5a/output_0_split
[2] I0619 19:48:54.656111 32946 net.cpp:864] inception_5a/output_inception_5a/output_0_split <- inception_5a/output
[2] I0619 19:48:54.656146 32946 net.cpp:838] inception_5a/output_inception_5a/output_0_split -> inception_5a/output_inception_5a/output_0_split_0
[2] I0619 19:48:54.656193 32946 net.cpp:838] inception_5a/output_inception_5a/output_0_split -> inception_5a/output_inception_5a/output_0_split_1
[2] I0619 19:48:54.656250 32946 net.cpp:838] inception_5a/output_inception_5a/output_0_split -> inception_5a/output_inception_5a/output_0_split_2
[2] I0619 19:48:54.656297 32946 net.cpp:838] inception_5a/output_inception_5a/output_0_split -> inception_5a/output_inception_5a/output_0_split_3
[2] I0619 19:48:54.656373 32946 net.cpp:267] Setting up inception_5a/output_inception_5a/output_0_split
[2] I0619 19:48:54.656414 32946 net.cpp:274] Top shape: 50 832 7 7 (2038400)
[2] I0619 19:48:54.656450 32946 net.cpp:274] Top shape: 50 832 7 7 (2038400)
[2] I0619 19:48:54.656486 32946 net.cpp:274] Top shape: 50 832 7 7 (2038400)
[2] I0619 19:48:54.656524 32946 net.cpp:274] Top shape: 50 832 7 7 (2038400)
[2] I0619 19:48:54.656553 32946 net.cpp:282] Memory required for data: 2762459624
[2] I0619 19:48:54.656577 32946 layer_factory.hpp:114] Creating layer inception_5b/1x1
[2] I0619 19:48:54.656672 32946 net.cpp:183] Creating Layer inception_5b/1x1
[2] I0619 19:48:54.656728 32946 net.cpp:864] inception_5b/1x1 <- inception_5a/output_inception_5a/output_0_split_0
[2] I0619 19:48:54.656783 32946 net.cpp:838] inception_5b/1x1 -> inception_5b/1x1
[1] I0619 19:48:54.499393 32264 net.cpp:267] Setting up inception_5a/pool_proj
[1] I0619 19:48:54.499512 32264 net.cpp:274] Top shape: 50 128 7 7 (313600)
[1] I0619 19:48:54.499543 32264 net.cpp:282] Memory required for data: 2720437224
[1] I0619 19:48:54.499616 32264 layer_factory.hpp:114] Creating layer inception_5a/relu_pool_proj
[1] I0619 19:48:54.499708 32264 net.cpp:183] Creating Layer inception_5a/relu_pool_proj
[1] I0619 19:48:54.499748 32264 net.cpp:864] inception_5a/relu_pool_proj <- inception_5a/pool_proj
[1] I0619 19:48:54.499806 32264 net.cpp:825] inception_5a/relu_pool_proj -> inception_5a/pool_proj (in-place)
[1] I0619 19:48:54.499904 32264 net.cpp:267] Setting up inception_5a/relu_pool_proj
[1] I0619 19:48:54.499958 32264 net.cpp:274] Top shape: 50 128 7 7 (313600)
[1] I0619 19:48:54.500111 32264 net.cpp:282] Memory required for data: 2721691624
[1] I0619 19:48:54.500154 32264 layer_factory.hpp:114] Creating layer inception_5a/output
[1] I0619 19:48:54.500214 32264 net.cpp:183] Creating Layer inception_5a/output
[1] I0619 19:48:54.500252 32264 net.cpp:864] inception_5a/output <- inception_5a/1x1
[1] I0619 19:48:54.500293 32264 net.cpp:864] inception_5a/output <- inception_5a/3x3
[1] I0619 19:48:54.500336 32264 net.cpp:864] inception_5a/output <- inception_5a/5x5
[1] I0619 19:48:54.500378 32264 net.cpp:864] inception_5a/output <- inception_5a/pool_proj
[1] I0619 19:48:54.500429 32264 net.cpp:838] inception_5a/output -> inception_5a/output
[1] I0619 19:48:54.500597 32264 net.cpp:267] Setting up inception_5a/output
[1] I0619 19:48:54.500646 32264 net.cpp:274] Top shape: 50 832 7 7 (2038400)
[1] I0619 19:48:54.500674 32264 net.cpp:282] Memory required for data: 2729845224
[1] I0619 19:48:54.500710 32264 layer_factory.hpp:114] Creating layer inception_5a/output_inception_5a/output_0_split
[1] I0619 19:48:54.500766 32264 net.cpp:183] Creating Layer inception_5a/output_inception_5a/output_0_split
[1] I0619 19:48:54.500797 32264 net.cpp:864] inception_5a/output_inception_5a/output_0_split <- inception_5a/output
[1] I0619 19:48:54.500847 32264 net.cpp:838] inception_5a/output_inception_5a/output_0_split -> inception_5a/output_inception_5a/output_0_split_0
[1] I0619 19:48:54.500905 32264 net.cpp:838] inception_5a/output_inception_5a/output_0_split -> inception_5a/output_inception_5a/output_0_split_1
[1] I0619 19:48:54.500953 32264 net.cpp:838] inception_5a/output_inception_5a/output_0_split -> inception_5a/output_inception_5a/output_0_split_2
[1] I0619 19:48:54.501003 32264 net.cpp:838] inception_5a/output_inception_5a/output_0_split -> inception_5a/output_inception_5a/output_0_split_3
[1] I0619 19:48:54.501132 32264 net.cpp:267] Setting up inception_5a/output_inception_5a/output_0_split
[1] I0619 19:48:54.501194 32264 net.cpp:274] Top shape: 50 832 7 7 (2038400)
[1] I0619 19:48:54.501246 32264 net.cpp:274] Top shape: 50 832 7 7 (2038400)
[1] I0619 19:48:54.501297 32264 net.cpp:274] Top shape: 50 832 7 7 (2038400)
[1] I0619 19:48:54.501349 32264 net.cpp:274] Top shape: 50 832 7 7 (2038400)
[1] I0619 19:48:54.501386 32264 net.cpp:282] Memory required for data: 2762459624
[1] I0619 19:48:54.501435 32264 layer_factory.hpp:114] Creating layer inception_5b/1x1
[1] I0619 19:48:54.501559 32264 net.cpp:183] Creating Layer inception_5b/1x1
[1] I0619 19:48:54.501605 32264 net.cpp:864] inception_5b/1x1 <- inception_5a/output_inception_5a/output_0_split_0
[1] I0619 19:48:54.501672 32264 net.cpp:838] inception_5b/1x1 -> inception_5b/1x1
[0] I0619 19:48:54.663730 32180 net.cpp:267] Setting up inception_5b/1x1
[0] I0619 19:48:54.663847 32180 net.cpp:274] Top shape: 50 384 7 7 (940800)
[0] I0619 19:48:54.663877 32180 net.cpp:282] Memory required for data: 2766222824
[0] I0619 19:48:54.663981 32180 layer_factory.hpp:114] Creating layer inception_5b/relu_1x1
[0] I0619 19:48:54.664075 32180 net.cpp:183] Creating Layer inception_5b/relu_1x1
[0] I0619 19:48:54.664125 32180 net.cpp:864] inception_5b/relu_1x1 <- inception_5b/1x1
[0] I0619 19:48:54.664173 32180 net.cpp:825] inception_5b/relu_1x1 -> inception_5b/1x1 (in-place)
[0] I0619 19:48:54.664270 32180 net.cpp:267] Setting up inception_5b/relu_1x1
[0] I0619 19:48:54.664327 32180 net.cpp:274] Top shape: 50 384 7 7 (940800)
[0] I0619 19:48:54.664358 32180 net.cpp:282] Memory required for data: 2769986024
[0] I0619 19:48:54.664396 32180 layer_factory.hpp:114] Creating layer inception_5b/3x3_reduce
[0] I0619 19:48:54.664528 32180 net.cpp:183] Creating Layer inception_5b/3x3_reduce
[0] I0619 19:48:54.664575 32180 net.cpp:864] inception_5b/3x3_reduce <- inception_5a/output_inception_5a/output_0_split_1
[0] I0619 19:48:54.664626 32180 net.cpp:838] inception_5b/3x3_reduce -> inception_5b/3x3_reduce
[3] I0619 19:48:54.669898 23187 net.cpp:267] Setting up inception_5b/1x1
[3] I0619 19:48:54.670013 23187 net.cpp:274] Top shape: 50 384 7 7 (940800)
[3] I0619 19:48:54.670043 23187 net.cpp:282] Memory required for data: 2766222824
[3] I0619 19:48:54.670120 23187 layer_factory.hpp:114] Creating layer inception_5b/relu_1x1
[3] I0619 19:48:54.670228 23187 net.cpp:183] Creating Layer inception_5b/relu_1x1
[3] I0619 19:48:54.670280 23187 net.cpp:864] inception_5b/relu_1x1 <- inception_5b/1x1
[3] I0619 19:48:54.670325 23187 net.cpp:825] inception_5b/relu_1x1 -> inception_5b/1x1 (in-place)
[3] I0619 19:48:54.670416 23187 net.cpp:267] Setting up inception_5b/relu_1x1
[3] I0619 19:48:54.670465 23187 net.cpp:274] Top shape: 50 384 7 7 (940800)
[3] I0619 19:48:54.670492 23187 net.cpp:282] Memory required for data: 2769986024
[3] I0619 19:48:54.670527 23187 layer_factory.hpp:114] Creating layer inception_5b/3x3_reduce
[3] I0619 19:48:54.670655 23187 net.cpp:183] Creating Layer inception_5b/3x3_reduce
[3] I0619 19:48:54.670722 23187 net.cpp:864] inception_5b/3x3_reduce <- inception_5a/output_inception_5a/output_0_split_1
[3] I0619 19:48:54.670783 23187 net.cpp:838] inception_5b/3x3_reduce -> inception_5b/3x3_reduce
[2] I0619 19:48:54.681341 32946 net.cpp:267] Setting up inception_5b/1x1
[2] I0619 19:48:54.681453 32946 net.cpp:274] Top shape: 50 384 7 7 (940800)
[2] I0619 19:48:54.681478 32946 net.cpp:282] Memory required for data: 2766222824
[2] I0619 19:48:54.681530 32946 layer_factory.hpp:114] Creating layer inception_5b/relu_1x1
[2] I0619 19:48:54.681612 32946 net.cpp:183] Creating Layer inception_5b/relu_1x1
[2] I0619 19:48:54.681654 32946 net.cpp:864] inception_5b/relu_1x1 <- inception_5b/1x1
[2] I0619 19:48:54.681735 32946 net.cpp:825] inception_5b/relu_1x1 -> inception_5b/1x1 (in-place)
[2] I0619 19:48:54.681819 32946 net.cpp:267] Setting up inception_5b/relu_1x1
[2] I0619 19:48:54.681859 32946 net.cpp:274] Top shape: 50 384 7 7 (940800)
[2] I0619 19:48:54.681892 32946 net.cpp:282] Memory required for data: 2769986024
[2] I0619 19:48:54.681924 32946 layer_factory.hpp:114] Creating layer inception_5b/3x3_reduce
[2] I0619 19:48:54.682020 32946 net.cpp:183] Creating Layer inception_5b/3x3_reduce
[2] I0619 19:48:54.682054 32946 net.cpp:864] inception_5b/3x3_reduce <- inception_5a/output_inception_5a/output_0_split_1
[2] I0619 19:48:54.682099 32946 net.cpp:838] inception_5b/3x3_reduce -> inception_5b/3x3_reduce
[1] I0619 19:48:54.526078 32264 net.cpp:267] Setting up inception_5b/1x1
[1] I0619 19:48:54.526195 32264 net.cpp:274] Top shape: 50 384 7 7 (940800)
[1] I0619 19:48:54.526224 32264 net.cpp:282] Memory required for data: 2766222824
[1] I0619 19:48:54.526301 32264 layer_factory.hpp:114] Creating layer inception_5b/relu_1x1
[1] I0619 19:48:54.526401 32264 net.cpp:183] Creating Layer inception_5b/relu_1x1
[1] I0619 19:48:54.526439 32264 net.cpp:864] inception_5b/relu_1x1 <- inception_5b/1x1
[1] I0619 19:48:54.526495 32264 net.cpp:825] inception_5b/relu_1x1 -> inception_5b/1x1 (in-place)
[1] I0619 19:48:54.526592 32264 net.cpp:267] Setting up inception_5b/relu_1x1
[1] I0619 19:48:54.526640 32264 net.cpp:274] Top shape: 50 384 7 7 (940800)
[1] I0619 19:48:54.526669 32264 net.cpp:282] Memory required for data: 2769986024
[1] I0619 19:48:54.526703 32264 layer_factory.hpp:114] Creating layer inception_5b/3x3_reduce
[1] I0619 19:48:54.526816 32264 net.cpp:183] Creating Layer inception_5b/3x3_reduce
[1] I0619 19:48:54.526851 32264 net.cpp:864] inception_5b/3x3_reduce <- inception_5a/output_inception_5a/output_0_split_1
[1] I0619 19:48:54.526906 32264 net.cpp:838] inception_5b/3x3_reduce -> inception_5b/3x3_reduce
[0] I0619 19:48:54.684576 32180 net.cpp:267] Setting up inception_5b/3x3_reduce
[0] I0619 19:48:54.684695 32180 net.cpp:274] Top shape: 50 192 7 7 (470400)
[0] I0619 19:48:54.684726 32180 net.cpp:282] Memory required for data: 2771867624
[0] I0619 19:48:54.684803 32180 layer_factory.hpp:114] Creating layer inception_5b/relu_3x3_reduce
[0] I0619 19:48:54.685001 32180 net.cpp:183] Creating Layer inception_5b/relu_3x3_reduce
[0] I0619 19:48:54.685052 32180 net.cpp:864] inception_5b/relu_3x3_reduce <- inception_5b/3x3_reduce
[0] I0619 19:48:54.685125 32180 net.cpp:825] inception_5b/relu_3x3_reduce -> inception_5b/3x3_reduce (in-place)
[0] I0619 19:48:54.685226 32180 net.cpp:267] Setting up inception_5b/relu_3x3_reduce
[0] I0619 19:48:54.685276 32180 net.cpp:274] Top shape: 50 192 7 7 (470400)
[0] I0619 19:48:54.685304 32180 net.cpp:282] Memory required for data: 2773749224
[0] I0619 19:48:54.685338 32180 layer_factory.hpp:114] Creating layer inception_5b/3x3
[0] I0619 19:48:54.685447 32180 net.cpp:183] Creating Layer inception_5b/3x3
[0] I0619 19:48:54.685480 32180 net.cpp:864] inception_5b/3x3 <- inception_5b/3x3_reduce
[0] I0619 19:48:54.685544 32180 net.cpp:838] inception_5b/3x3 -> inception_5b/3x3
[3] I0619 19:48:54.689272 23187 net.cpp:267] Setting up inception_5b/3x3_reduce
[3] I0619 19:48:54.689390 23187 net.cpp:274] Top shape: 50 192 7 7 (470400)
[3] I0619 19:48:54.689419 23187 net.cpp:282] Memory required for data: 2771867624
[3] I0619 19:48:54.689497 23187 layer_factory.hpp:114] Creating layer inception_5b/relu_3x3_reduce
[3] I0619 19:48:54.689692 23187 net.cpp:183] Creating Layer inception_5b/relu_3x3_reduce
[3] I0619 19:48:54.689784 23187 net.cpp:864] inception_5b/relu_3x3_reduce <- inception_5b/3x3_reduce
[3] I0619 19:48:54.689836 23187 net.cpp:825] inception_5b/relu_3x3_reduce -> inception_5b/3x3_reduce (in-place)
[3] I0619 19:48:54.689949 23187 net.cpp:267] Setting up inception_5b/relu_3x3_reduce
[3] I0619 19:48:54.690029 23187 net.cpp:274] Top shape: 50 192 7 7 (470400)
[3] I0619 19:48:54.690064 23187 net.cpp:282] Memory required for data: 2773749224
[3] I0619 19:48:54.690105 23187 layer_factory.hpp:114] Creating layer inception_5b/3x3
[3] I0619 19:48:54.690237 23187 net.cpp:183] Creating Layer inception_5b/3x3
[3] I0619 19:48:54.690289 23187 net.cpp:864] inception_5b/3x3 <- inception_5b/3x3_reduce
[3] I0619 19:48:54.690389 23187 net.cpp:838] inception_5b/3x3 -> inception_5b/3x3
[2] I0619 19:48:54.699889 32946 net.cpp:267] Setting up inception_5b/3x3_reduce
[2] I0619 19:48:54.700000 32946 net.cpp:274] Top shape: 50 192 7 7 (470400)
[2] I0619 19:48:54.700023 32946 net.cpp:282] Memory required for data: 2771867624
[2] I0619 19:48:54.700076 32946 layer_factory.hpp:114] Creating layer inception_5b/relu_3x3_reduce
[2] I0619 19:48:54.700244 32946 net.cpp:183] Creating Layer inception_5b/relu_3x3_reduce
[2] I0619 19:48:54.700294 32946 net.cpp:864] inception_5b/relu_3x3_reduce <- inception_5b/3x3_reduce
[2] I0619 19:48:54.700343 32946 net.cpp:825] inception_5b/relu_3x3_reduce -> inception_5b/3x3_reduce (in-place)
[2] I0619 19:48:54.700436 32946 net.cpp:267] Setting up inception_5b/relu_3x3_reduce
[2] I0619 19:48:54.700479 32946 net.cpp:274] Top shape: 50 192 7 7 (470400)
[2] I0619 19:48:54.700515 32946 net.cpp:282] Memory required for data: 2773749224
[2] I0619 19:48:54.700541 32946 layer_factory.hpp:114] Creating layer inception_5b/3x3
[2] I0619 19:48:54.700635 32946 net.cpp:183] Creating Layer inception_5b/3x3
[2] I0619 19:48:54.700671 32946 net.cpp:864] inception_5b/3x3 <- inception_5b/3x3_reduce
[2] I0619 19:48:54.700752 32946 net.cpp:838] inception_5b/3x3 -> inception_5b/3x3
[1] I0619 19:48:54.546839 32264 net.cpp:267] Setting up inception_5b/3x3_reduce
[1] I0619 19:48:54.546958 32264 net.cpp:274] Top shape: 50 192 7 7 (470400)
[1] I0619 19:48:54.546988 32264 net.cpp:282] Memory required for data: 2771867624
[1] I0619 19:48:54.547096 32264 layer_factory.hpp:114] Creating layer inception_5b/relu_3x3_reduce
[1] I0619 19:48:54.547310 32264 net.cpp:183] Creating Layer inception_5b/relu_3x3_reduce
[1] I0619 19:48:54.547374 32264 net.cpp:864] inception_5b/relu_3x3_reduce <- inception_5b/3x3_reduce
[1] I0619 19:48:54.547425 32264 net.cpp:825] inception_5b/relu_3x3_reduce -> inception_5b/3x3_reduce (in-place)
[1] I0619 19:48:54.547549 32264 net.cpp:267] Setting up inception_5b/relu_3x3_reduce
[1] I0619 19:48:54.547622 32264 net.cpp:274] Top shape: 50 192 7 7 (470400)
[1] I0619 19:48:54.547665 32264 net.cpp:282] Memory required for data: 2773749224
[1] I0619 19:48:54.547714 32264 layer_factory.hpp:114] Creating layer inception_5b/3x3
[1] I0619 19:48:54.547835 32264 net.cpp:183] Creating Layer inception_5b/3x3
[1] I0619 19:48:54.547881 32264 net.cpp:864] inception_5b/3x3 <- inception_5b/3x3_reduce
[1] I0619 19:48:54.547946 32264 net.cpp:838] inception_5b/3x3 -> inception_5b/3x3
[0] I0619 19:48:54.723198 32180 net.cpp:267] Setting up inception_5b/3x3
[0] I0619 19:48:54.723312 32180 net.cpp:274] Top shape: 50 384 7 7 (940800)
[0] I0619 19:48:54.723341 32180 net.cpp:282] Memory required for data: 2777512424
[0] I0619 19:48:54.723415 32180 layer_factory.hpp:114] Creating layer inception_5b/relu_3x3
[0] I0619 19:48:54.723505 32180 net.cpp:183] Creating Layer inception_5b/relu_3x3
[0] I0619 19:48:54.723662 32180 net.cpp:864] inception_5b/relu_3x3 <- inception_5b/3x3
[0] I0619 19:48:54.723718 32180 net.cpp:825] inception_5b/relu_3x3 -> inception_5b/3x3 (in-place)
[0] I0619 19:48:54.723827 32180 net.cpp:267] Setting up inception_5b/relu_3x3
[0] I0619 19:48:54.723881 32180 net.cpp:274] Top shape: 50 384 7 7 (940800)
[0] I0619 19:48:54.723938 32180 net.cpp:282] Memory required for data: 2781275624
[0] I0619 19:48:54.723996 32180 layer_factory.hpp:114] Creating layer inception_5b/5x5_reduce
[0] I0619 19:48:54.724136 32180 net.cpp:183] Creating Layer inception_5b/5x5_reduce
[0] I0619 19:48:54.724180 32180 net.cpp:864] inception_5b/5x5_reduce <- inception_5a/output_inception_5a/output_0_split_2
[0] I0619 19:48:54.724249 32180 net.cpp:838] inception_5b/5x5_reduce -> inception_5b/5x5_reduce
[3] I0619 19:48:54.727785 23187 net.cpp:267] Setting up inception_5b/3x3
[3] I0619 19:48:54.727900 23187 net.cpp:274] Top shape: 50 384 7 7 (940800)
[3] I0619 19:48:54.727932 23187 net.cpp:282] Memory required for data: 2777512424
[3] I0619 19:48:54.728009 23187 layer_factory.hpp:114] Creating layer inception_5b/relu_3x3
[3] I0619 19:48:54.728113 23187 net.cpp:183] Creating Layer inception_5b/relu_3x3
[3] I0619 19:48:54.728165 23187 net.cpp:864] inception_5b/relu_3x3 <- inception_5b/3x3
[3] I0619 19:48:54.728210 23187 net.cpp:825] inception_5b/relu_3x3 -> inception_5b/3x3 (in-place)
[3] I0619 19:48:54.728304 23187 net.cpp:267] Setting up inception_5b/relu_3x3
[3] I0619 19:48:54.728354 23187 net.cpp:274] Top shape: 50 384 7 7 (940800)
[3] I0619 19:48:54.728382 23187 net.cpp:282] Memory required for data: 2781275624
[3] I0619 19:48:54.728416 23187 layer_factory.hpp:114] Creating layer inception_5b/5x5_reduce
[3] I0619 19:48:54.728529 23187 net.cpp:183] Creating Layer inception_5b/5x5_reduce
[3] I0619 19:48:54.728579 23187 net.cpp:864] inception_5b/5x5_reduce <- inception_5a/output_inception_5a/output_0_split_2
[3] I0619 19:48:54.728628 23187 net.cpp:838] inception_5b/5x5_reduce -> inception_5b/5x5_reduce
[2] I0619 19:48:54.738509 32946 net.cpp:267] Setting up inception_5b/3x3
[2] I0619 19:48:54.738620 32946 net.cpp:274] Top shape: 50 384 7 7 (940800)
[2] I0619 19:48:54.738644 32946 net.cpp:282] Memory required for data: 2777512424
[2] I0619 19:48:54.738726 32946 layer_factory.hpp:114] Creating layer inception_5b/relu_3x3
[2] I0619 19:48:54.738829 32946 net.cpp:183] Creating Layer inception_5b/relu_3x3
[2] I0619 19:48:54.738885 32946 net.cpp:864] inception_5b/relu_3x3 <- inception_5b/3x3
[2] I0619 19:48:54.738952 32946 net.cpp:825] inception_5b/relu_3x3 -> inception_5b/3x3 (in-place)
[2] I0619 19:48:54.739056 32946 net.cpp:267] Setting up inception_5b/relu_3x3
[2] I0619 19:48:54.739104 32946 net.cpp:274] Top shape: 50 384 7 7 (940800)
[2] I0619 19:48:54.739133 32946 net.cpp:282] Memory required for data: 2781275624
[2] I0619 19:48:54.739181 32946 layer_factory.hpp:114] Creating layer inception_5b/5x5_reduce
[2] I0619 19:48:54.739276 32946 net.cpp:183] Creating Layer inception_5b/5x5_reduce
[2] I0619 19:48:54.739318 32946 net.cpp:864] inception_5b/5x5_reduce <- inception_5a/output_inception_5a/output_0_split_2
[2] I0619 19:48:54.739367 32946 net.cpp:838] inception_5b/5x5_reduce -> inception_5b/5x5_reduce
[0] I0619 19:48:54.739552 32180 net.cpp:267] Setting up inception_5b/5x5_reduce
[0] I0619 19:48:54.739667 32180 net.cpp:274] Top shape: 50 48 7 7 (117600)
[0] I0619 19:48:54.739697 32180 net.cpp:282] Memory required for data: 2781746024
[0] I0619 19:48:54.739775 32180 layer_factory.hpp:114] Creating layer inception_5b/relu_5x5_reduce
[0] I0619 19:48:54.739866 32180 net.cpp:183] Creating Layer inception_5b/relu_5x5_reduce
[0] I0619 19:48:54.739934 32180 net.cpp:864] inception_5b/relu_5x5_reduce <- inception_5b/5x5_reduce
[0] I0619 19:48:54.739987 32180 net.cpp:825] inception_5b/relu_5x5_reduce -> inception_5b/5x5_reduce (in-place)
[0] I0619 19:48:54.740113 32180 net.cpp:267] Setting up inception_5b/relu_5x5_reduce
[0] I0619 19:48:54.740180 32180 net.cpp:274] Top shape: 50 48 7 7 (117600)
[0] I0619 19:48:54.740213 32180 net.cpp:282] Memory required for data: 2782216424
[0] I0619 19:48:54.740252 32180 layer_factory.hpp:114] Creating layer inception_5b/5x5
[0] I0619 19:48:54.740406 32180 net.cpp:183] Creating Layer inception_5b/5x5
[0] I0619 19:48:54.740458 32180 net.cpp:864] inception_5b/5x5 <- inception_5b/5x5_reduce
[0] I0619 19:48:54.740517 32180 net.cpp:838] inception_5b/5x5 -> inception_5b/5x5
[1] I0619 19:48:54.585657 32264 net.cpp:267] Setting up inception_5b/3x3
[1] I0619 19:48:54.585772 32264 net.cpp:274] Top shape: 50 384 7 7 (940800)
[1] I0619 19:48:54.585803 32264 net.cpp:282] Memory required for data: 2777512424
[1] I0619 19:48:54.585877 32264 layer_factory.hpp:114] Creating layer inception_5b/relu_3x3
[1] I0619 19:48:54.585968 32264 net.cpp:183] Creating Layer inception_5b/relu_3x3
[1] I0619 19:48:54.586158 32264 net.cpp:864] inception_5b/relu_3x3 <- inception_5b/3x3
[1] I0619 19:48:54.586210 32264 net.cpp:825] inception_5b/relu_3x3 -> inception_5b/3x3 (in-place)
[1] I0619 19:48:54.586326 32264 net.cpp:267] Setting up inception_5b/relu_3x3
[1] I0619 19:48:54.586380 32264 net.cpp:274] Top shape: 50 384 7 7 (940800)
[1] I0619 19:48:54.586419 32264 net.cpp:282] Memory required for data: 2781275624
[1] I0619 19:48:54.586457 32264 layer_factory.hpp:114] Creating layer inception_5b/5x5_reduce
[1] I0619 19:48:54.586560 32264 net.cpp:183] Creating Layer inception_5b/5x5_reduce
[1] I0619 19:48:54.586606 32264 net.cpp:864] inception_5b/5x5_reduce <- inception_5a/output_inception_5a/output_0_split_2
[1] I0619 19:48:54.586678 32264 net.cpp:838] inception_5b/5x5_reduce -> inception_5b/5x5_reduce
[3] I0619 19:48:54.743237 23187 net.cpp:267] Setting up inception_5b/5x5_reduce
[3] I0619 19:48:54.743350 23187 net.cpp:274] Top shape: 50 48 7 7 (117600)
[3] I0619 19:48:54.743379 23187 net.cpp:282] Memory required for data: 2781746024
[3] I0619 19:48:54.743454 23187 layer_factory.hpp:114] Creating layer inception_5b/relu_5x5_reduce
[3] I0619 19:48:54.743552 23187 net.cpp:183] Creating Layer inception_5b/relu_5x5_reduce
[3] I0619 19:48:54.743602 23187 net.cpp:864] inception_5b/relu_5x5_reduce <- inception_5b/5x5_reduce
[3] I0619 19:48:54.743649 23187 net.cpp:825] inception_5b/relu_5x5_reduce -> inception_5b/5x5_reduce (in-place)
[3] I0619 19:48:54.743762 23187 net.cpp:267] Setting up inception_5b/relu_5x5_reduce
[3] I0619 19:48:54.743816 23187 net.cpp:274] Top shape: 50 48 7 7 (117600)
[3] I0619 19:48:54.743844 23187 net.cpp:282] Memory required for data: 2782216424
[3] I0619 19:48:54.743875 23187 layer_factory.hpp:114] Creating layer inception_5b/5x5
[3] I0619 19:48:54.743995 23187 net.cpp:183] Creating Layer inception_5b/5x5
[3] I0619 19:48:54.744030 23187 net.cpp:864] inception_5b/5x5 <- inception_5b/5x5_reduce
[3] I0619 19:48:54.744102 23187 net.cpp:838] inception_5b/5x5 -> inception_5b/5x5
[2] I0619 19:48:54.753964 32946 net.cpp:267] Setting up inception_5b/5x5_reduce
[2] I0619 19:48:54.754077 32946 net.cpp:274] Top shape: 50 48 7 7 (117600)
[2] I0619 19:48:54.754106 32946 net.cpp:282] Memory required for data: 2781746024
[2] I0619 19:48:54.754175 32946 layer_factory.hpp:114] Creating layer inception_5b/relu_5x5_reduce
[2] I0619 19:48:54.754277 32946 net.cpp:183] Creating Layer inception_5b/relu_5x5_reduce
[2] I0619 19:48:54.754329 32946 net.cpp:864] inception_5b/relu_5x5_reduce <- inception_5b/5x5_reduce
[2] I0619 19:48:54.754400 32946 net.cpp:825] inception_5b/relu_5x5_reduce -> inception_5b/5x5_reduce (in-place)
[2] I0619 19:48:54.754498 32946 net.cpp:267] Setting up inception_5b/relu_5x5_reduce
[2] I0619 19:48:54.754546 32946 net.cpp:274] Top shape: 50 48 7 7 (117600)
[2] I0619 19:48:54.754575 32946 net.cpp:282] Memory required for data: 2782216424
[2] I0619 19:48:54.754616 32946 layer_factory.hpp:114] Creating layer inception_5b/5x5
[2] I0619 19:48:54.754758 32946 net.cpp:183] Creating Layer inception_5b/5x5
[2] I0619 19:48:54.754806 32946 net.cpp:864] inception_5b/5x5 <- inception_5b/5x5_reduce
[2] I0619 19:48:54.754878 32946 net.cpp:838] inception_5b/5x5 -> inception_5b/5x5
[1] I0619 19:48:54.602018 32264 net.cpp:267] Setting up inception_5b/5x5_reduce
[1] I0619 19:48:54.602169 32264 net.cpp:274] Top shape: 50 48 7 7 (117600)
[1] I0619 19:48:54.602200 32264 net.cpp:282] Memory required for data: 2781746024
[1] I0619 19:48:54.602277 32264 layer_factory.hpp:114] Creating layer inception_5b/relu_5x5_reduce
[1] I0619 19:48:54.602360 32264 net.cpp:183] Creating Layer inception_5b/relu_5x5_reduce
[1] I0619 19:48:54.602401 32264 net.cpp:864] inception_5b/relu_5x5_reduce <- inception_5b/5x5_reduce
[1] I0619 19:48:54.602474 32264 net.cpp:825] inception_5b/relu_5x5_reduce -> inception_5b/5x5_reduce (in-place)
[1] I0619 19:48:54.602581 32264 net.cpp:267] Setting up inception_5b/relu_5x5_reduce
[1] I0619 19:48:54.602630 32264 net.cpp:274] Top shape: 50 48 7 7 (117600)
[1] I0619 19:48:54.602659 32264 net.cpp:282] Memory required for data: 2782216424
[1] I0619 19:48:54.602694 32264 layer_factory.hpp:114] Creating layer inception_5b/5x5
[1] I0619 19:48:54.602807 32264 net.cpp:183] Creating Layer inception_5b/5x5
[1] I0619 19:48:54.602843 32264 net.cpp:864] inception_5b/5x5 <- inception_5b/5x5_reduce
[1] I0619 19:48:54.602915 32264 net.cpp:838] inception_5b/5x5 -> inception_5b/5x5
[0] I0619 19:48:54.764396 32180 net.cpp:267] Setting up inception_5b/5x5
[0] I0619 19:48:54.764510 32180 net.cpp:274] Top shape: 50 128 7 7 (313600)
[0] I0619 19:48:54.764541 32180 net.cpp:282] Memory required for data: 2783470824
[0] I0619 19:48:54.764616 32180 layer_factory.hpp:114] Creating layer inception_5b/relu_5x5
[0] I0619 19:48:54.764688 32180 net.cpp:183] Creating Layer inception_5b/relu_5x5
[0] I0619 19:48:54.764731 32180 net.cpp:864] inception_5b/relu_5x5 <- inception_5b/5x5
[0] I0619 19:48:54.764778 32180 net.cpp:825] inception_5b/relu_5x5 -> inception_5b/5x5 (in-place)
[0] I0619 19:48:54.764873 32180 net.cpp:267] Setting up inception_5b/relu_5x5
[0] I0619 19:48:54.764950 32180 net.cpp:274] Top shape: 50 128 7 7 (313600)
[0] I0619 19:48:54.764977 32180 net.cpp:282] Memory required for data: 2784725224
[0] I0619 19:48:54.765012 32180 layer_factory.hpp:114] Creating layer inception_5b/pool
[0] I0619 19:48:54.765084 32180 net.cpp:183] Creating Layer inception_5b/pool
[0] I0619 19:48:54.765215 32180 net.cpp:864] inception_5b/pool <- inception_5a/output_inception_5a/output_0_split_3
[0] I0619 19:48:54.765266 32180 net.cpp:838] inception_5b/pool -> inception_5b/pool
[0] I0619 19:48:54.765380 32180 net.cpp:267] Setting up inception_5b/pool
[0] I0619 19:48:54.765430 32180 net.cpp:274] Top shape: 50 832 7 7 (2038400)
[0] I0619 19:48:54.765467 32180 net.cpp:282] Memory required for data: 2792878824
[0] I0619 19:48:54.765511 32180 layer_factory.hpp:114] Creating layer inception_5b/pool_proj
[0] I0619 19:48:54.765610 32180 net.cpp:183] Creating Layer inception_5b/pool_proj
[0] I0619 19:48:54.765647 32180 net.cpp:864] inception_5b/pool_proj <- inception_5b/pool
[0] I0619 19:48:54.765703 32180 net.cpp:838] inception_5b/pool_proj -> inception_5b/pool_proj
[3] I0619 19:48:54.767225 23187 net.cpp:267] Setting up inception_5b/5x5
[3] I0619 19:48:54.767356 23187 net.cpp:274] Top shape: 50 128 7 7 (313600)
[3] I0619 19:48:54.767387 23187 net.cpp:282] Memory required for data: 2783470824
[3] I0619 19:48:54.767462 23187 layer_factory.hpp:114] Creating layer inception_5b/relu_5x5
[3] I0619 19:48:54.767541 23187 net.cpp:183] Creating Layer inception_5b/relu_5x5
[3] I0619 19:48:54.767583 23187 net.cpp:864] inception_5b/relu_5x5 <- inception_5b/5x5
[3] I0619 19:48:54.767637 23187 net.cpp:825] inception_5b/relu_5x5 -> inception_5b/5x5 (in-place)
[3] I0619 19:48:54.767757 23187 net.cpp:267] Setting up inception_5b/relu_5x5
[3] I0619 19:48:54.767812 23187 net.cpp:274] Top shape: 50 128 7 7 (313600)
[3] I0619 19:48:54.767841 23187 net.cpp:282] Memory required for data: 2784725224
[3] I0619 19:48:54.767875 23187 layer_factory.hpp:114] Creating layer inception_5b/pool
[3] I0619 19:48:54.767951 23187 net.cpp:183] Creating Layer inception_5b/pool
[3] I0619 19:48:54.768090 23187 net.cpp:864] inception_5b/pool <- inception_5a/output_inception_5a/output_0_split_3
[3] I0619 19:48:54.768148 23187 net.cpp:838] inception_5b/pool -> inception_5b/pool
[3] I0619 19:48:54.768257 23187 net.cpp:267] Setting up inception_5b/pool
[3] I0619 19:48:54.768312 23187 net.cpp:274] Top shape: 50 832 7 7 (2038400)
[3] I0619 19:48:54.768343 23187 net.cpp:282] Memory required for data: 2792878824
[3] I0619 19:48:54.768379 23187 layer_factory.hpp:114] Creating layer inception_5b/pool_proj
[3] I0619 19:48:54.768479 23187 net.cpp:183] Creating Layer inception_5b/pool_proj
[3] I0619 19:48:54.768517 23187 net.cpp:864] inception_5b/pool_proj <- inception_5b/pool
[3] I0619 19:48:54.768584 23187 net.cpp:838] inception_5b/pool_proj -> inception_5b/pool_proj
[2] I0619 19:48:54.777781 32946 net.cpp:267] Setting up inception_5b/5x5
[2] I0619 19:48:54.777905 32946 net.cpp:274] Top shape: 50 128 7 7 (313600)
[2] I0619 19:48:54.777936 32946 net.cpp:282] Memory required for data: 2783470824
[2] I0619 19:48:54.778007 32946 layer_factory.hpp:114] Creating layer inception_5b/relu_5x5
[2] I0619 19:48:54.778090 32946 net.cpp:183] Creating Layer inception_5b/relu_5x5
[2] I0619 19:48:54.778137 32946 net.cpp:864] inception_5b/relu_5x5 <- inception_5b/5x5
[2] I0619 19:48:54.778200 32946 net.cpp:825] inception_5b/relu_5x5 -> inception_5b/5x5 (in-place)
[2] I0619 19:48:54.778295 32946 net.cpp:267] Setting up inception_5b/relu_5x5
[2] I0619 19:48:54.778343 32946 net.cpp:274] Top shape: 50 128 7 7 (313600)
[2] I0619 19:48:54.778381 32946 net.cpp:282] Memory required for data: 2784725224
[2] I0619 19:48:54.778427 32946 layer_factory.hpp:114] Creating layer inception_5b/pool
[2] I0619 19:48:54.778506 32946 net.cpp:183] Creating Layer inception_5b/pool
[2] I0619 19:48:54.778626 32946 net.cpp:864] inception_5b/pool <- inception_5a/output_inception_5a/output_0_split_3
[2] I0619 19:48:54.778672 32946 net.cpp:838] inception_5b/pool -> inception_5b/pool
[2] I0619 19:48:54.778801 32946 net.cpp:267] Setting up inception_5b/pool
[2] I0619 19:48:54.778857 32946 net.cpp:274] Top shape: 50 832 7 7 (2038400)
[2] I0619 19:48:54.778898 32946 net.cpp:282] Memory required for data: 2792878824
[2] I0619 19:48:54.778933 32946 layer_factory.hpp:114] Creating layer inception_5b/pool_proj
[2] I0619 19:48:54.779028 32946 net.cpp:183] Creating Layer inception_5b/pool_proj
[2] I0619 19:48:54.779065 32946 net.cpp:864] inception_5b/pool_proj <- inception_5b/pool
[2] I0619 19:48:54.779125 32946 net.cpp:838] inception_5b/pool_proj -> inception_5b/pool_proj
[0] I0619 19:48:54.782272 32180 net.cpp:267] Setting up inception_5b/pool_proj
[1] I0619 19:48:54.626456 32264 net.cpp:267] Setting up inception_5b/5x5
[0] I0619 19:48:54.782387 32180 net.cpp:274] Top shape: 50 128 7 7 (313600)
[0] I0619 19:48:54.782414 32180 net.cpp:282] Memory required for data: 2794133224
[1] I0619 19:48:54.626574 32264 net.cpp:274] Top shape: 50 128 7 7 (313600)
[1] I0619 19:48:54.626602 32264 net.cpp:282] Memory required for data: 2783470824
[0] I0619 19:48:54.782490 32180 layer_factory.hpp:114] Creating layer inception_5b/relu_pool_proj
[1] I0619 19:48:54.626677 32264 layer_factory.hpp:114] Creating layer inception_5b/relu_5x5
[0] I0619 19:48:54.782595 32180 net.cpp:183] Creating Layer inception_5b/relu_pool_proj
[1] I0619 19:48:54.626786 32264 net.cpp:183] Creating Layer inception_5b/relu_5x5
[0] I0619 19:48:54.782642 32180 net.cpp:864] inception_5b/relu_pool_proj <- inception_5b/pool_proj
[1] I0619 19:48:54.626827 32264 net.cpp:864] inception_5b/relu_5x5 <- inception_5b/5x5
[0] I0619 19:48:54.782709 32180 net.cpp:825] inception_5b/relu_pool_proj -> inception_5b/pool_proj (in-place)
[1] I0619 19:48:54.626886 32264 net.cpp:825] inception_5b/relu_5x5 -> inception_5b/5x5 (in-place)
[0] I0619 19:48:54.782825 32180 net.cpp:267] Setting up inception_5b/relu_pool_proj
[1] I0619 19:48:54.626972 32264 net.cpp:267] Setting up inception_5b/relu_5x5
[0] I0619 19:48:54.782876 32180 net.cpp:274] Top shape: 50 128 7 7 (313600)
[0] I0619 19:48:54.782937 32180 net.cpp:282] Memory required for data: 2795387624
[1] I0619 19:48:54.627023 32264 net.cpp:274] Top shape: 50 128 7 7 (313600)
[0] I0619 19:48:54.782974 32180 layer_factory.hpp:114] Creating layer inception_5b/output
[1] I0619 19:48:54.627082 32264 net.cpp:282] Memory required for data: 2784725224
[0] I0619 19:48:54.783053 32180 net.cpp:183] Creating Layer inception_5b/output
[1] I0619 19:48:54.627117 32264 layer_factory.hpp:114] Creating layer inception_5b/pool
[0] I0619 19:48:54.783092 32180 net.cpp:864] inception_5b/output <- inception_5b/1x1
[1] I0619 19:48:54.627197 32264 net.cpp:183] Creating Layer inception_5b/pool
[0] I0619 19:48:54.783133 32180 net.cpp:864] inception_5b/output <- inception_5b/3x3
[1] I0619 19:48:54.627341 32264 net.cpp:864] inception_5b/pool <- inception_5a/output_inception_5a/output_0_split_3
[0] I0619 19:48:54.783179 32180 net.cpp:864] inception_5b/output <- inception_5b/5x5
[1] I0619 19:48:54.627410 32264 net.cpp:838] inception_5b/pool -> inception_5b/pool
[0] I0619 19:48:54.783226 32180 net.cpp:864] inception_5b/output <- inception_5b/pool_proj
[1] I0619 19:48:54.627529 32264 net.cpp:267] Setting up inception_5b/pool
[0] I0619 19:48:54.783282 32180 net.cpp:838] inception_5b/output -> inception_5b/output
[1] I0619 19:48:54.627588 32264 net.cpp:274] Top shape: 50 832 7 7 (2038400)
[0] I0619 19:48:54.783463 32180 net.cpp:267] Setting up inception_5b/output
[1] I0619 19:48:54.627625 32264 net.cpp:282] Memory required for data: 2792878824
[0] I0619 19:48:54.783529 32180 net.cpp:274] Top shape: 50 1024 7 7 (2508800)
[1] I0619 19:48:54.627672 32264 layer_factory.hpp:114] Creating layer inception_5b/pool_proj
[0] I0619 19:48:54.783571 32180 net.cpp:282] Memory required for data: 2805422824
[0] I0619 19:48:54.783608 32180 layer_factory.hpp:114] Creating layer pool5/7x7_s1
[1] I0619 19:48:54.627770 32264 net.cpp:183] Creating Layer inception_5b/pool_proj
[0] I0619 19:48:54.783679 32180 net.cpp:183] Creating Layer pool5/7x7_s1
[1] I0619 19:48:54.627812 32264 net.cpp:864] inception_5b/pool_proj <- inception_5b/pool
[0] I0619 19:48:54.783721 32180 net.cpp:864] pool5/7x7_s1 <- inception_5b/output
[1] I0619 19:48:54.627897 32264 net.cpp:838] inception_5b/pool_proj -> inception_5b/pool_proj
[0] I0619 19:48:54.783774 32180 net.cpp:838] pool5/7x7_s1 -> pool5/7x7_s1
[0] I0619 19:48:54.783891 32180 net.cpp:267] Setting up pool5/7x7_s1
[0] I0619 19:48:54.783980 32180 net.cpp:274] Top shape: 50 1024 1 1 (51200)
[0] I0619 19:48:54.784013 32180 net.cpp:282] Memory required for data: 2805627624
[0] I0619 19:48:54.784052 32180 layer_factory.hpp:114] Creating layer pool5/drop_7x7_s1
[0] I0619 19:48:54.784106 32180 net.cpp:183] Creating Layer pool5/drop_7x7_s1
[0] I0619 19:48:54.784140 32180 net.cpp:864] pool5/drop_7x7_s1 <- pool5/7x7_s1
[0] I0619 19:48:54.784185 32180 net.cpp:825] pool5/drop_7x7_s1 -> pool5/7x7_s1 (in-place)
[0] I0619 19:48:54.784255 32180 net.cpp:267] Setting up pool5/drop_7x7_s1
[0] I0619 19:48:54.784309 32180 net.cpp:274] Top shape: 50 1024 1 1 (51200)
[0] I0619 19:48:54.784346 32180 net.cpp:282] Memory required for data: 2805832424
[0] I0619 19:48:54.784391 32180 layer_factory.hpp:114] Creating layer loss3/classifier
[0] I0619 19:48:54.784488 32180 net.cpp:183] Creating Layer loss3/classifier
[0] I0619 19:48:54.784529 32180 net.cpp:864] loss3/classifier <- pool5/7x7_s1
[0] I0619 19:48:54.784592 32180 net.cpp:838] loss3/classifier -> loss3/classifier
[3] I0619 19:48:54.786586 23187 net.cpp:267] Setting up inception_5b/pool_proj
[3] I0619 19:48:54.786731 23187 net.cpp:274] Top shape: 50 128 7 7 (313600)
[3] I0619 19:48:54.786770 23187 net.cpp:282] Memory required for data: 2794133224
[3] I0619 19:48:54.786854 23187 layer_factory.hpp:114] Creating layer inception_5b/relu_pool_proj
[3] I0619 19:48:54.786974 23187 net.cpp:183] Creating Layer inception_5b/relu_pool_proj
[3] I0619 19:48:54.787035 23187 net.cpp:864] inception_5b/relu_pool_proj <- inception_5b/pool_proj
[3] I0619 19:48:54.787099 23187 net.cpp:825] inception_5b/relu_pool_proj -> inception_5b/pool_proj (in-place)
[3] I0619 19:48:54.787232 23187 net.cpp:267] Setting up inception_5b/relu_pool_proj
[3] I0619 19:48:54.787297 23187 net.cpp:274] Top shape: 50 128 7 7 (313600)
[3] I0619 19:48:54.787330 23187 net.cpp:282] Memory required for data: 2795387624
[3] I0619 19:48:54.787371 23187 layer_factory.hpp:114] Creating layer inception_5b/output
[3] I0619 19:48:54.787449 23187 net.cpp:183] Creating Layer inception_5b/output
[3] I0619 19:48:54.787511 23187 net.cpp:864] inception_5b/output <- inception_5b/1x1
[3] I0619 19:48:54.787567 23187 net.cpp:864] inception_5b/output <- inception_5b/3x3
[3] I0619 19:48:54.787616 23187 net.cpp:864] inception_5b/output <- inception_5b/5x5
[3] I0619 19:48:54.787667 23187 net.cpp:864] inception_5b/output <- inception_5b/pool_proj
[3] I0619 19:48:54.787753 23187 net.cpp:838] inception_5b/output -> inception_5b/output
[3] I0619 19:48:54.787928 23187 net.cpp:267] Setting up inception_5b/output
[3] I0619 19:48:54.788003 23187 net.cpp:274] Top shape: 50 1024 7 7 (2508800)
[3] I0619 19:48:54.788038 23187 net.cpp:282] Memory required for data: 2805422824
[3] I0619 19:48:54.788084 23187 layer_factory.hpp:114] Creating layer pool5/7x7_s1
[3] I0619 19:48:54.788157 23187 net.cpp:183] Creating Layer pool5/7x7_s1
[3] I0619 19:48:54.788205 23187 net.cpp:864] pool5/7x7_s1 <- inception_5b/output
[3] I0619 19:48:54.788261 23187 net.cpp:838] pool5/7x7_s1 -> pool5/7x7_s1
[3] I0619 19:48:54.788372 23187 net.cpp:267] Setting up pool5/7x7_s1
[3] I0619 19:48:54.788430 23187 net.cpp:274] Top shape: 50 1024 1 1 (51200)
[3] I0619 19:48:54.788461 23187 net.cpp:282] Memory required for data: 2805627624
[3] I0619 19:48:54.788496 23187 layer_factory.hpp:114] Creating layer pool5/drop_7x7_s1
[3] I0619 19:48:54.788545 23187 net.cpp:183] Creating Layer pool5/drop_7x7_s1
[3] I0619 19:48:54.788576 23187 net.cpp:864] pool5/drop_7x7_s1 <- pool5/7x7_s1
[3] I0619 19:48:54.788617 23187 net.cpp:825] pool5/drop_7x7_s1 -> pool5/7x7_s1 (in-place)
[3] I0619 19:48:54.788674 23187 net.cpp:267] Setting up pool5/drop_7x7_s1
[3] I0619 19:48:54.788748 23187 net.cpp:274] Top shape: 50 1024 1 1 (51200)
[3] I0619 19:48:54.788779 23187 net.cpp:282] Memory required for data: 2805832424
[3] I0619 19:48:54.788812 23187 layer_factory.hpp:114] Creating layer loss3/classifier
[3] I0619 19:48:54.788894 23187 net.cpp:183] Creating Layer loss3/classifier
[3] I0619 19:48:54.788930 23187 net.cpp:864] loss3/classifier <- pool5/7x7_s1
[3] I0619 19:48:54.788977 23187 net.cpp:838] loss3/classifier -> loss3/classifier
[2] I0619 19:48:54.796957 32946 net.cpp:267] Setting up inception_5b/pool_proj
[2] I0619 19:48:54.797075 32946 net.cpp:274] Top shape: 50 128 7 7 (313600)
[2] I0619 19:48:54.797104 32946 net.cpp:282] Memory required for data: 2794133224
[2] I0619 19:48:54.797176 32946 layer_factory.hpp:114] Creating layer inception_5b/relu_pool_proj
[2] I0619 19:48:54.797269 32946 net.cpp:183] Creating Layer inception_5b/relu_pool_proj
[2] I0619 19:48:54.797317 32946 net.cpp:864] inception_5b/relu_pool_proj <- inception_5b/pool_proj
[2] I0619 19:48:54.797381 32946 net.cpp:825] inception_5b/relu_pool_proj -> inception_5b/pool_proj (in-place)
[2] I0619 19:48:54.797487 32946 net.cpp:267] Setting up inception_5b/relu_pool_proj
[2] I0619 19:48:54.797533 32946 net.cpp:274] Top shape: 50 128 7 7 (313600)
[2] I0619 19:48:54.797560 32946 net.cpp:282] Memory required for data: 2795387624
[2] I0619 19:48:54.797606 32946 layer_factory.hpp:114] Creating layer inception_5b/output
[2] I0619 19:48:54.797667 32946 net.cpp:183] Creating Layer inception_5b/output
[2] I0619 19:48:54.797749 32946 net.cpp:864] inception_5b/output <- inception_5b/1x1
[2] I0619 19:48:54.797786 32946 net.cpp:864] inception_5b/output <- inception_5b/3x3
[2] I0619 19:48:54.797835 32946 net.cpp:864] inception_5b/output <- inception_5b/5x5
[2] I0619 19:48:54.797883 32946 net.cpp:864] inception_5b/output <- inception_5b/pool_proj
[2] I0619 19:48:54.797933 32946 net.cpp:838] inception_5b/output -> inception_5b/output
[2] I0619 19:48:54.798084 32946 net.cpp:267] Setting up inception_5b/output
[2] I0619 19:48:54.798146 32946 net.cpp:274] Top shape: 50 1024 7 7 (2508800)
[2] I0619 19:48:54.798185 32946 net.cpp:282] Memory required for data: 2805422824
[2] I0619 19:48:54.798219 32946 layer_factory.hpp:114] Creating layer pool5/7x7_s1
[2] I0619 19:48:54.798285 32946 net.cpp:183] Creating Layer pool5/7x7_s1
[2] I0619 19:48:54.798322 32946 net.cpp:864] pool5/7x7_s1 <- inception_5b/output
[2] I0619 19:48:54.798367 32946 net.cpp:838] pool5/7x7_s1 -> pool5/7x7_s1
[2] I0619 19:48:54.798455 32946 net.cpp:267] Setting up pool5/7x7_s1
[2] I0619 19:48:54.798504 32946 net.cpp:274] Top shape: 50 1024 1 1 (51200)
[2] I0619 19:48:54.798533 32946 net.cpp:282] Memory required for data: 2805627624
[2] I0619 19:48:54.798576 32946 layer_factory.hpp:114] Creating layer pool5/drop_7x7_s1
[2] I0619 19:48:54.798616 32946 net.cpp:183] Creating Layer pool5/drop_7x7_s1
[2] I0619 19:48:54.798656 32946 net.cpp:864] pool5/drop_7x7_s1 <- pool5/7x7_s1
[2] I0619 19:48:54.798722 32946 net.cpp:825] pool5/drop_7x7_s1 -> pool5/7x7_s1 (in-place)
[2] I0619 19:48:54.798787 32946 net.cpp:267] Setting up pool5/drop_7x7_s1
[2] I0619 19:48:54.798840 32946 net.cpp:274] Top shape: 50 1024 1 1 (51200)
[2] I0619 19:48:54.798878 32946 net.cpp:282] Memory required for data: 2805832424
[2] I0619 19:48:54.798912 32946 layer_factory.hpp:114] Creating layer loss3/classifier
[2] I0619 19:48:54.798992 32946 net.cpp:183] Creating Layer loss3/classifier
[2] I0619 19:48:54.799029 32946 net.cpp:864] loss3/classifier <- pool5/7x7_s1
[2] I0619 19:48:54.799077 32946 net.cpp:838] loss3/classifier -> loss3/classifier
[1] I0619 19:48:54.645748 32264 net.cpp:267] Setting up inception_5b/pool_proj
[1] I0619 19:48:54.645866 32264 net.cpp:274] Top shape: 50 128 7 7 (313600)
[1] I0619 19:48:54.645897 32264 net.cpp:282] Memory required for data: 2794133224
[1] I0619 19:48:54.645973 32264 layer_factory.hpp:114] Creating layer inception_5b/relu_pool_proj
[1] I0619 19:48:54.646087 32264 net.cpp:183] Creating Layer inception_5b/relu_pool_proj
[1] I0619 19:48:54.646137 32264 net.cpp:864] inception_5b/relu_pool_proj <- inception_5b/pool_proj
[1] I0619 19:48:54.646189 32264 net.cpp:825] inception_5b/relu_pool_proj -> inception_5b/pool_proj (in-place)
[1] I0619 19:48:54.646276 32264 net.cpp:267] Setting up inception_5b/relu_pool_proj
[1] I0619 19:48:54.646327 32264 net.cpp:274] Top shape: 50 128 7 7 (313600)
[1] I0619 19:48:54.646355 32264 net.cpp:282] Memory required for data: 2795387624
[1] I0619 19:48:54.646389 32264 layer_factory.hpp:114] Creating layer inception_5b/output
[1] I0619 19:48:54.646448 32264 net.cpp:183] Creating Layer inception_5b/output
[1] I0619 19:48:54.646481 32264 net.cpp:864] inception_5b/output <- inception_5b/1x1
[1] I0619 19:48:54.646517 32264 net.cpp:864] inception_5b/output <- inception_5b/3x3
[1] I0619 19:48:54.646564 32264 net.cpp:864] inception_5b/output <- inception_5b/5x5
[1] I0619 19:48:54.646600 32264 net.cpp:864] inception_5b/output <- inception_5b/pool_proj
[1] I0619 19:48:54.646651 32264 net.cpp:838] inception_5b/output -> inception_5b/output
[1] I0619 19:48:54.646800 32264 net.cpp:267] Setting up inception_5b/output
[1] I0619 19:48:54.646847 32264 net.cpp:274] Top shape: 50 1024 7 7 (2508800)
[1] I0619 19:48:54.646883 32264 net.cpp:282] Memory required for data: 2805422824
[1] I0619 19:48:54.646914 32264 layer_factory.hpp:114] Creating layer pool5/7x7_s1
[1] I0619 19:48:54.646987 32264 net.cpp:183] Creating Layer pool5/7x7_s1
[1] I0619 19:48:54.647022 32264 net.cpp:864] pool5/7x7_s1 <- inception_5b/output
[1] I0619 19:48:54.647090 32264 net.cpp:838] pool5/7x7_s1 -> pool5/7x7_s1
[1] I0619 19:48:54.647191 32264 net.cpp:267] Setting up pool5/7x7_s1
[1] I0619 19:48:54.647249 32264 net.cpp:274] Top shape: 50 1024 1 1 (51200)
[1] I0619 19:48:54.647280 32264 net.cpp:282] Memory required for data: 2805627624
[1] I0619 19:48:54.647320 32264 layer_factory.hpp:114] Creating layer pool5/drop_7x7_s1
[1] I0619 19:48:54.647379 32264 net.cpp:183] Creating Layer pool5/drop_7x7_s1
[1] I0619 19:48:54.647430 32264 net.cpp:864] pool5/drop_7x7_s1 <- pool5/7x7_s1
[1] I0619 19:48:54.647477 32264 net.cpp:825] pool5/drop_7x7_s1 -> pool5/7x7_s1 (in-place)
[1] I0619 19:48:54.647536 32264 net.cpp:267] Setting up pool5/drop_7x7_s1
[1] I0619 19:48:54.647598 32264 net.cpp:274] Top shape: 50 1024 1 1 (51200)
[1] I0619 19:48:54.647637 32264 net.cpp:282] Memory required for data: 2805832424
[1] I0619 19:48:54.647682 32264 layer_factory.hpp:114] Creating layer loss3/classifier
[1] I0619 19:48:54.647781 32264 net.cpp:183] Creating Layer loss3/classifier
[1] I0619 19:48:54.647822 32264 net.cpp:864] loss3/classifier <- pool5/7x7_s1
[1] I0619 19:48:54.647888 32264 net.cpp:838] loss3/classifier -> loss3/classifier
[0] I0619 19:48:54.814059 32180 net.cpp:267] Setting up loss3/classifier
[0] I0619 19:48:54.814165 32180 net.cpp:274] Top shape: 50 1000 (50000)
[0] I0619 19:48:54.814194 32180 net.cpp:282] Memory required for data: 2806032424
[0] I0619 19:48:54.814267 32180 layer_factory.hpp:114] Creating layer loss3/classifier_loss3/classifier_0_split
[0] I0619 19:48:54.814450 32180 net.cpp:183] Creating Layer loss3/classifier_loss3/classifier_0_split
[0] I0619 19:48:54.814496 32180 net.cpp:864] loss3/classifier_loss3/classifier_0_split <- loss3/classifier
[0] I0619 19:48:54.814563 32180 net.cpp:838] loss3/classifier_loss3/classifier_0_split -> loss3/classifier_loss3/classifier_0_split_0
[0] I0619 19:48:54.814626 32180 net.cpp:838] loss3/classifier_loss3/classifier_0_split -> loss3/classifier_loss3/classifier_0_split_1
[0] I0619 19:48:54.814674 32180 net.cpp:838] loss3/classifier_loss3/classifier_0_split -> loss3/classifier_loss3/classifier_0_split_2
[0] I0619 19:48:54.814774 32180 net.cpp:267] Setting up loss3/classifier_loss3/classifier_0_split
[0] I0619 19:48:54.814826 32180 net.cpp:274] Top shape: 50 1000 (50000)
[0] I0619 19:48:54.814865 32180 net.cpp:274] Top shape: 50 1000 (50000)
[0] I0619 19:48:54.814931 32180 net.cpp:274] Top shape: 50 1000 (50000)
[0] I0619 19:48:54.814976 32180 net.cpp:282] Memory required for data: 2806632424
[0] I0619 19:48:54.815024 32180 layer_factory.hpp:114] Creating layer loss3/loss3
[0] I0619 19:48:54.815080 32180 net.cpp:183] Creating Layer loss3/loss3
[0] I0619 19:48:54.815122 32180 net.cpp:864] loss3/loss3 <- loss3/classifier_loss3/classifier_0_split_0
[0] I0619 19:48:54.815162 32180 net.cpp:864] loss3/loss3 <- label_data_1_split_6
…
